{"format": "layers-model", "generatedBy": "keras v3.8.0", "convertedBy": "TensorFlow.js Converter v4.22.0", "modelTopology": {"keras_version": "3.8.0", "backend": "tensorflow", "model_config": {"class_name": "Functional", "config": {"name": "functional_4", "trainable": true, "layers": [{"class_name": "InputLayer", "config": {"batch_shape": [null, 224, 224, 3], "dtype": "float32", "sparse": false, "name": "input_layer"}, "name": "input_layer", "inbound_nodes": []}, {"class_name": "Normalization", "config": {"name": "convnext_small_prestem_normalization", "trainable": false, "dtype": {"module": "keras", "class_name": "DTypePolicy", "config": {"name": "float32"}, "registered_name": null}, "axis": [-1], "invert": false, "mean": [123.675, 116.28, 103.53], "variance": [3409.9760250000004, 3262.6944000000003, 3291.890625]}, "name": "convnext_small_prestem_normalization", "inbound_nodes": [{"args": [{"class_name": "__keras_tensor__", "config": {"shape": [null, 224, 224, 3], "dtype": "float32", "keras_history": ["input_layer", 0, 0]}}], "kwargs": {}}]}, {"class_name": "Sequential", "config": {"name": "convnext_small_stem", "trainable": false, "dtype": {"module": "keras", "class_name": "DTypePolicy", "config": {"name": "float32"}, "registered_name": null}, "layers": [{"class_name": "InputLayer", "config": {"batch_shape": [null, 224, 224, 3], "dtype": "float32", "sparse": false, "name": "input_layer_1"}}, {"class_name": "Conv2D", "config": {"name": "convnext_small_stem_conv", "trainable": false, "dtype": {"module": "keras", "class_name": "DTypePolicy", "config": {"name": "float32"}, "registered_name": null}, "filters": 96, "kernel_size": [4, 4], "strides": [4, 4], "padding": "valid", "data_format": "channels_last", "dilation_rate": [1, 1], "groups": 1, "activation": "linear", "use_bias": true, "kernel_initializer": {"module": "keras.initializers", "class_name": "GlorotUniform", "config": {"seed": null}, "registered_name": null}, "bias_initializer": {"module": "keras.initializers", "class_name": "Zeros", "config": {}, "registered_name": null}, "kernel_regularizer": null, "bias_regularizer": null, "activity_regularizer": null, "kernel_constraint": null, "bias_constraint": null}}, {"class_name": "LayerNormalization", "config": {"name": "convnext_small_stem_layernorm", "trainable": false, "dtype": {"module": "keras", "class_name": "DTypePolicy", "config": {"name": "float32"}, "registered_name": null}, "axis": [-1], "epsilon": 1e-06, "center": true, "scale": true, "rms_scaling": false, "beta_initializer": {"module": "keras.initializers", "class_name": "Zeros", "config": {}, "registered_name": null}, "gamma_initializer": {"module": "keras.initializers", "class_name": "Ones", "config": {}, "registered_name": null}, "beta_regularizer": null, "gamma_regularizer": null, "beta_constraint": null, "gamma_constraint": null}}], "build_input_shape": [null, 224, 224, 3]}, "name": "convnext_small_stem", "inbound_nodes": [{"args": [{"class_name": "__keras_tensor__", "config": {"shape": [null, 224, 224, 3], "dtype": "float32", "keras_history": ["convnext_small_prestem_normalization", 0, 0]}}], "kwargs": {"mask": null}}]}, {"class_name": "Conv2D", "config": {"name": "convnext_small_stage_0_block_0_depthwise_conv", "trainable": false, "dtype": {"module": "keras", "class_name": "DTypePolicy", "config": {"name": "float32"}, "registered_name": null}, "filters": 96, "kernel_size": [7, 7], "strides": [1, 1], "padding": "same", "data_format": "channels_last", "dilation_rate": [1, 1], "groups": 96, "activation": "linear", "use_bias": true, "kernel_initializer": {"module": "keras.initializers", "class_name": "GlorotUniform", "config": {"seed": null}, "registered_name": null}, "bias_initializer": {"module": "keras.initializers", "class_name": "Zeros", "config": {}, "registered_name": null}, "kernel_regularizer": null, "bias_regularizer": null, "activity_regularizer": null, "kernel_constraint": null, "bias_constraint": null}, "name": "convnext_small_stage_0_block_0_depthwise_conv", "inbound_nodes": [{"args": [{"class_name": "__keras_tensor__", "config": {"shape": [null, 56, 56, 96], "dtype": "float32", "keras_history": ["convnext_small_stem", 0, 0]}}], "kwargs": {}}]}, {"class_name": "LayerNormalization", "config": {"name": "convnext_small_stage_0_block_0_layernorm", "trainable": false, "dtype": {"module": "keras", "class_name": "DTypePolicy", "config": {"name": "float32"}, "registered_name": null}, "axis": [-1], "epsilon": 1e-06, "center": true, "scale": true, "rms_scaling": false, "beta_initializer": {"module": "keras.initializers", "class_name": "Zeros", "config": {}, "registered_name": null}, "gamma_initializer": {"module": "keras.initializers", "class_name": "Ones", "config": {}, "registered_name": null}, "beta_regularizer": null, "gamma_regularizer": null, "beta_constraint": null, "gamma_constraint": null}, "name": "convnext_small_stage_0_block_0_layernorm", "inbound_nodes": [{"args": [{"class_name": "__keras_tensor__", "config": {"shape": [null, 56, 56, 96], "dtype": "float32", "keras_history": ["convnext_small_stage_0_block_0_depthwise_conv", 0, 0]}}], "kwargs": {}}]}, {"class_name": "Dense", "config": {"name": "convnext_small_stage_0_block_0_pointwise_conv_1", "trainable": false, "dtype": {"module": "keras", "class_name": "DTypePolicy", "config": {"name": "float32"}, "registered_name": null}, "units": 384, "activation": "linear", "use_bias": true, "kernel_initializer": {"module": "keras.initializers", "class_name": "GlorotUniform", "config": {"seed": null}, "registered_name": null}, "bias_initializer": {"module": "keras.initializers", "class_name": "Zeros", "config": {}, "registered_name": null}, "kernel_regularizer": null, "bias_regularizer": null, "kernel_constraint": null, "bias_constraint": null}, "name": "convnext_small_stage_0_block_0_pointwise_conv_1", "inbound_nodes": [{"args": [{"class_name": "__keras_tensor__", "config": {"shape": [null, 56, 56, 96], "dtype": "float32", "keras_history": ["convnext_small_stage_0_block_0_layernorm", 0, 0]}}], "kwargs": {}}]}, {"class_name": "Activation", "config": {"name": "convnext_small_stage_0_block_0_gelu", "trainable": false, "dtype": {"module": "keras", "class_name": "DTypePolicy", "config": {"name": "float32"}, "registered_name": null}, "activation": "gelu"}, "name": "convnext_small_stage_0_block_0_gelu", "inbound_nodes": [{"args": [{"class_name": "__keras_tensor__", "config": {"shape": [null, 56, 56, 384], "dtype": "float32", "keras_history": ["convnext_small_stage_0_block_0_pointwise_conv_1", 0, 0]}}], "kwargs": {}}]}, {"class_name": "Dense", "config": {"name": "convnext_small_stage_0_block_0_pointwise_conv_2", "trainable": false, "dtype": {"module": "keras", "class_name": "DTypePolicy", "config": {"name": "float32"}, "registered_name": null}, "units": 96, "activation": "linear", "use_bias": true, "kernel_initializer": {"module": "keras.initializers", "class_name": "GlorotUniform", "config": {"seed": null}, "registered_name": null}, "bias_initializer": {"module": "keras.initializers", "class_name": "Zeros", "config": {}, "registered_name": null}, "kernel_regularizer": null, "bias_regularizer": null, "kernel_constraint": null, "bias_constraint": null}, "name": "convnext_small_stage_0_block_0_pointwise_conv_2", "inbound_nodes": [{"args": [{"class_name": "__keras_tensor__", "config": {"shape": [null, 56, 56, 384], "dtype": "float32", "keras_history": ["convnext_small_stage_0_block_0_gelu", 0, 0]}}], "kwargs": {}}]}, {"class_name": "LayerScale", "config": {"name": "convnext_small_stage_0_block_0_layer_scale", "trainable": false, "dtype": {"module": "keras", "class_name": "DTypePolicy", "config": {"name": "float32"}, "registered_name": null}, "init_values": 1e-06, "projection_dim": 96}, "name": "convnext_small_stage_0_block_0_layer_scale", "inbound_nodes": [{"args": [{"class_name": "__keras_tensor__", "config": {"shape": [null, 56, 56, 96], "dtype": "float32", "keras_history": ["convnext_small_stage_0_block_0_pointwise_conv_2", 0, 0]}}], "kwargs": {}}]}, {"class_name": "Activation", "config": {"name": "convnext_small_stage_0_block_0_identity", "trainable": false, "dtype": {"module": "keras", "class_name": "DTypePolicy", "config": {"name": "float32"}, "registered_name": null}, "activation": "linear"}, "name": "convnext_small_stage_0_block_0_identity", "inbound_nodes": [{"args": [{"class_name": "__keras_tensor__", "config": {"shape": [null, 56, 56, 96], "dtype": "float32", "keras_history": ["convnext_small_stage_0_block_0_layer_scale", 0, 0]}}], "kwargs": {}}]}, {"class_name": "Add", "config": {"name": "add"}, "name": "add", "inbound_nodes": [{"args": [{"class_name": "__keras_tensor__", "config": {"shape": [null, 56, 56, 96], "dtype": "float32", "keras_history": ["convnext_small_stem", 0, 0]}}, {"class_name": "__keras_tensor__", "config": {"shape": [null, 56, 56, 96], "dtype": "float32", "keras_history": ["convnext_small_stage_0_block_0_identity", 0, 0]}}], "kwargs": {}}]}, {"class_name": "Conv2D", "config": {"name": "convnext_small_stage_0_block_1_depthwise_conv", "trainable": false, "dtype": {"module": "keras", "class_name": "DTypePolicy", "config": {"name": "float32"}, "registered_name": null}, "filters": 96, "kernel_size": [7, 7], "strides": [1, 1], "padding": "same", "data_format": "channels_last", "dilation_rate": [1, 1], "groups": 96, "activation": "linear", "use_bias": true, "kernel_initializer": {"module": "keras.initializers", "class_name": "GlorotUniform", "config": {"seed": null}, "registered_name": null}, "bias_initializer": {"module": "keras.initializers", "class_name": "Zeros", "config": {}, "registered_name": null}, "kernel_regularizer": null, "bias_regularizer": null, "activity_regularizer": null, "kernel_constraint": null, "bias_constraint": null}, "name": "convnext_small_stage_0_block_1_depthwise_conv", "inbound_nodes": [{"args": [{"class_name": "__keras_tensor__", "config": {"shape": [null, 56, 56, 96], "dtype": "float32", "keras_history": ["add", 0, 0]}}], "kwargs": {}}]}, {"class_name": "LayerNormalization", "config": {"name": "convnext_small_stage_0_block_1_layernorm", "trainable": false, "dtype": {"module": "keras", "class_name": "DTypePolicy", "config": {"name": "float32"}, "registered_name": null}, "axis": [-1], "epsilon": 1e-06, "center": true, "scale": true, "rms_scaling": false, "beta_initializer": {"module": "keras.initializers", "class_name": "Zeros", "config": {}, "registered_name": null}, "gamma_initializer": {"module": "keras.initializers", "class_name": "Ones", "config": {}, "registered_name": null}, "beta_regularizer": null, "gamma_regularizer": null, "beta_constraint": null, "gamma_constraint": null}, "name": "convnext_small_stage_0_block_1_layernorm", "inbound_nodes": [{"args": [{"class_name": "__keras_tensor__", "config": {"shape": [null, 56, 56, 96], "dtype": "float32", "keras_history": ["convnext_small_stage_0_block_1_depthwise_conv", 0, 0]}}], "kwargs": {}}]}, {"class_name": "Dense", "config": {"name": "convnext_small_stage_0_block_1_pointwise_conv_1", "trainable": false, "dtype": {"module": "keras", "class_name": "DTypePolicy", "config": {"name": "float32"}, "registered_name": null}, "units": 384, "activation": "linear", "use_bias": true, "kernel_initializer": {"module": "keras.initializers", "class_name": "GlorotUniform", "config": {"seed": null}, "registered_name": null}, "bias_initializer": {"module": "keras.initializers", "class_name": "Zeros", "config": {}, "registered_name": null}, "kernel_regularizer": null, "bias_regularizer": null, "kernel_constraint": null, "bias_constraint": null}, "name": "convnext_small_stage_0_block_1_pointwise_conv_1", "inbound_nodes": [{"args": [{"class_name": "__keras_tensor__", "config": {"shape": [null, 56, 56, 96], "dtype": "float32", "keras_history": ["convnext_small_stage_0_block_1_layernorm", 0, 0]}}], "kwargs": {}}]}, {"class_name": "Activation", "config": {"name": "convnext_small_stage_0_block_1_gelu", "trainable": false, "dtype": {"module": "keras", "class_name": "DTypePolicy", "config": {"name": "float32"}, "registered_name": null}, "activation": "gelu"}, "name": "convnext_small_stage_0_block_1_gelu", "inbound_nodes": [{"args": [{"class_name": "__keras_tensor__", "config": {"shape": [null, 56, 56, 384], "dtype": "float32", "keras_history": ["convnext_small_stage_0_block_1_pointwise_conv_1", 0, 0]}}], "kwargs": {}}]}, {"class_name": "Dense", "config": {"name": "convnext_small_stage_0_block_1_pointwise_conv_2", "trainable": false, "dtype": {"module": "keras", "class_name": "DTypePolicy", "config": {"name": "float32"}, "registered_name": null}, "units": 96, "activation": "linear", "use_bias": true, "kernel_initializer": {"module": "keras.initializers", "class_name": "GlorotUniform", "config": {"seed": null}, "registered_name": null}, "bias_initializer": {"module": "keras.initializers", "class_name": "Zeros", "config": {}, "registered_name": null}, "kernel_regularizer": null, "bias_regularizer": null, "kernel_constraint": null, "bias_constraint": null}, "name": "convnext_small_stage_0_block_1_pointwise_conv_2", "inbound_nodes": [{"args": [{"class_name": "__keras_tensor__", "config": {"shape": [null, 56, 56, 384], "dtype": "float32", "keras_history": ["convnext_small_stage_0_block_1_gelu", 0, 0]}}], "kwargs": {}}]}, {"class_name": "LayerScale", "config": {"name": "convnext_small_stage_0_block_1_layer_scale", "trainable": false, "dtype": {"module": "keras", "class_name": "DTypePolicy", "config": {"name": "float32"}, "registered_name": null}, "init_values": 1e-06, "projection_dim": 96}, "name": "convnext_small_stage_0_block_1_layer_scale", "inbound_nodes": [{"args": [{"class_name": "__keras_tensor__", "config": {"shape": [null, 56, 56, 96], "dtype": "float32", "keras_history": ["convnext_small_stage_0_block_1_pointwise_conv_2", 0, 0]}}], "kwargs": {}}]}, {"class_name": "Activation", "config": {"name": "convnext_small_stage_0_block_1_identity", "trainable": false, "dtype": {"module": "keras", "class_name": "DTypePolicy", "config": {"name": "float32"}, "registered_name": null}, "activation": "linear"}, "name": "convnext_small_stage_0_block_1_identity", "inbound_nodes": [{"args": [{"class_name": "__keras_tensor__", "config": {"shape": [null, 56, 56, 96], "dtype": "float32", "keras_history": ["convnext_small_stage_0_block_1_layer_scale", 0, 0]}}], "kwargs": {}}]}, {"class_name": "Add", "config": {"name": "add_1"}, "name": "add_1", "inbound_nodes": [{"args": [{"class_name": "__keras_tensor__", "config": {"shape": [null, 56, 56, 96], "dtype": "float32", "keras_history": ["add", 0, 0]}}, {"class_name": "__keras_tensor__", "config": {"shape": [null, 56, 56, 96], "dtype": "float32", "keras_history": ["convnext_small_stage_0_block_1_identity", 0, 0]}}], "kwargs": {}}]}, {"class_name": "Conv2D", "config": {"name": "convnext_small_stage_0_block_2_depthwise_conv", "trainable": false, "dtype": {"module": "keras", "class_name": "DTypePolicy", "config": {"name": "float32"}, "registered_name": null}, "filters": 96, "kernel_size": [7, 7], "strides": [1, 1], "padding": "same", "data_format": "channels_last", "dilation_rate": [1, 1], "groups": 96, "activation": "linear", "use_bias": true, "kernel_initializer": {"module": "keras.initializers", "class_name": "GlorotUniform", "config": {"seed": null}, "registered_name": null}, "bias_initializer": {"module": "keras.initializers", "class_name": "Zeros", "config": {}, "registered_name": null}, "kernel_regularizer": null, "bias_regularizer": null, "activity_regularizer": null, "kernel_constraint": null, "bias_constraint": null}, "name": "convnext_small_stage_0_block_2_depthwise_conv", "inbound_nodes": [{"args": [{"class_name": "__keras_tensor__", "config": {"shape": [null, 56, 56, 96], "dtype": "float32", "keras_history": ["add_1", 0, 0]}}], "kwargs": {}}]}, {"class_name": "LayerNormalization", "config": {"name": "convnext_small_stage_0_block_2_layernorm", "trainable": false, "dtype": {"module": "keras", "class_name": "DTypePolicy", "config": {"name": "float32"}, "registered_name": null}, "axis": [-1], "epsilon": 1e-06, "center": true, "scale": true, "rms_scaling": false, "beta_initializer": {"module": "keras.initializers", "class_name": "Zeros", "config": {}, "registered_name": null}, "gamma_initializer": {"module": "keras.initializers", "class_name": "Ones", "config": {}, "registered_name": null}, "beta_regularizer": null, "gamma_regularizer": null, "beta_constraint": null, "gamma_constraint": null}, "name": "convnext_small_stage_0_block_2_layernorm", "inbound_nodes": [{"args": [{"class_name": "__keras_tensor__", "config": {"shape": [null, 56, 56, 96], "dtype": "float32", "keras_history": ["convnext_small_stage_0_block_2_depthwise_conv", 0, 0]}}], "kwargs": {}}]}, {"class_name": "Dense", "config": {"name": "convnext_small_stage_0_block_2_pointwise_conv_1", "trainable": false, "dtype": {"module": "keras", "class_name": "DTypePolicy", "config": {"name": "float32"}, "registered_name": null}, "units": 384, "activation": "linear", "use_bias": true, "kernel_initializer": {"module": "keras.initializers", "class_name": "GlorotUniform", "config": {"seed": null}, "registered_name": null}, "bias_initializer": {"module": "keras.initializers", "class_name": "Zeros", "config": {}, "registered_name": null}, "kernel_regularizer": null, "bias_regularizer": null, "kernel_constraint": null, "bias_constraint": null}, "name": "convnext_small_stage_0_block_2_pointwise_conv_1", "inbound_nodes": [{"args": [{"class_name": "__keras_tensor__", "config": {"shape": [null, 56, 56, 96], "dtype": "float32", "keras_history": ["convnext_small_stage_0_block_2_layernorm", 0, 0]}}], "kwargs": {}}]}, {"class_name": "Activation", "config": {"name": "convnext_small_stage_0_block_2_gelu", "trainable": false, "dtype": {"module": "keras", "class_name": "DTypePolicy", "config": {"name": "float32"}, "registered_name": null}, "activation": "gelu"}, "name": "convnext_small_stage_0_block_2_gelu", "inbound_nodes": [{"args": [{"class_name": "__keras_tensor__", "config": {"shape": [null, 56, 56, 384], "dtype": "float32", "keras_history": ["convnext_small_stage_0_block_2_pointwise_conv_1", 0, 0]}}], "kwargs": {}}]}, {"class_name": "Dense", "config": {"name": "convnext_small_stage_0_block_2_pointwise_conv_2", "trainable": false, "dtype": {"module": "keras", "class_name": "DTypePolicy", "config": {"name": "float32"}, "registered_name": null}, "units": 96, "activation": "linear", "use_bias": true, "kernel_initializer": {"module": "keras.initializers", "class_name": "GlorotUniform", "config": {"seed": null}, "registered_name": null}, "bias_initializer": {"module": "keras.initializers", "class_name": "Zeros", "config": {}, "registered_name": null}, "kernel_regularizer": null, "bias_regularizer": null, "kernel_constraint": null, "bias_constraint": null}, "name": "convnext_small_stage_0_block_2_pointwise_conv_2", "inbound_nodes": [{"args": [{"class_name": "__keras_tensor__", "config": {"shape": [null, 56, 56, 384], "dtype": "float32", "keras_history": ["convnext_small_stage_0_block_2_gelu", 0, 0]}}], "kwargs": {}}]}, {"class_name": "LayerScale", "config": {"name": "convnext_small_stage_0_block_2_layer_scale", "trainable": false, "dtype": {"module": "keras", "class_name": "DTypePolicy", "config": {"name": "float32"}, "registered_name": null}, "init_values": 1e-06, "projection_dim": 96}, "name": "convnext_small_stage_0_block_2_layer_scale", "inbound_nodes": [{"args": [{"class_name": "__keras_tensor__", "config": {"shape": [null, 56, 56, 96], "dtype": "float32", "keras_history": ["convnext_small_stage_0_block_2_pointwise_conv_2", 0, 0]}}], "kwargs": {}}]}, {"class_name": "Activation", "config": {"name": "convnext_small_stage_0_block_2_identity", "trainable": false, "dtype": {"module": "keras", "class_name": "DTypePolicy", "config": {"name": "float32"}, "registered_name": null}, "activation": "linear"}, "name": "convnext_small_stage_0_block_2_identity", "inbound_nodes": [{"args": [{"class_name": "__keras_tensor__", "config": {"shape": [null, 56, 56, 96], "dtype": "float32", "keras_history": ["convnext_small_stage_0_block_2_layer_scale", 0, 0]}}], "kwargs": {}}]}, {"class_name": "Add", "config": {"name": "add_2"}, "name": "add_2", "inbound_nodes": [{"args": [{"class_name": "__keras_tensor__", "config": {"shape": [null, 56, 56, 96], "dtype": "float32", "keras_history": ["add_1", 0, 0]}}, {"class_name": "__keras_tensor__", "config": {"shape": [null, 56, 56, 96], "dtype": "float32", "keras_history": ["convnext_small_stage_0_block_2_identity", 0, 0]}}], "kwargs": {}}]}, {"class_name": "Sequential", "config": {"name": "convnext_small_downsampling_block_0", "trainable": false, "dtype": {"module": "keras", "class_name": "DTypePolicy", "config": {"name": "float32"}, "registered_name": null}, "layers": [{"class_name": "InputLayer", "config": {"batch_shape": [null, 56, 56, 96], "dtype": "float32", "sparse": false, "name": "input_layer_2"}}, {"class_name": "LayerNormalization", "config": {"name": "convnext_small_downsampling_layernorm_0", "trainable": false, "dtype": {"module": "keras", "class_name": "DTypePolicy", "config": {"name": "float32"}, "registered_name": null}, "axis": [-1], "epsilon": 1e-06, "center": true, "scale": true, "rms_scaling": false, "beta_initializer": {"module": "keras.initializers", "class_name": "Zeros", "config": {}, "registered_name": null}, "gamma_initializer": {"module": "keras.initializers", "class_name": "Ones", "config": {}, "registered_name": null}, "beta_regularizer": null, "gamma_regularizer": null, "beta_constraint": null, "gamma_constraint": null}}, {"class_name": "Conv2D", "config": {"name": "convnext_small_downsampling_conv_0", "trainable": false, "dtype": {"module": "keras", "class_name": "DTypePolicy", "config": {"name": "float32"}, "registered_name": null}, "filters": 192, "kernel_size": [2, 2], "strides": [2, 2], "padding": "valid", "data_format": "channels_last", "dilation_rate": [1, 1], "groups": 1, "activation": "linear", "use_bias": true, "kernel_initializer": {"module": "keras.initializers", "class_name": "GlorotUniform", "config": {"seed": null}, "registered_name": null}, "bias_initializer": {"module": "keras.initializers", "class_name": "Zeros", "config": {}, "registered_name": null}, "kernel_regularizer": null, "bias_regularizer": null, "activity_regularizer": null, "kernel_constraint": null, "bias_constraint": null}}], "build_input_shape": [null, 56, 56, 96]}, "name": "convnext_small_downsampling_block_0", "inbound_nodes": [{"args": [{"class_name": "__keras_tensor__", "config": {"shape": [null, 56, 56, 96], "dtype": "float32", "keras_history": ["add_2", 0, 0]}}], "kwargs": {"mask": null}}]}, {"class_name": "Conv2D", "config": {"name": "convnext_small_stage_1_block_0_depthwise_conv", "trainable": false, "dtype": {"module": "keras", "class_name": "DTypePolicy", "config": {"name": "float32"}, "registered_name": null}, "filters": 192, "kernel_size": [7, 7], "strides": [1, 1], "padding": "same", "data_format": "channels_last", "dilation_rate": [1, 1], "groups": 192, "activation": "linear", "use_bias": true, "kernel_initializer": {"module": "keras.initializers", "class_name": "GlorotUniform", "config": {"seed": null}, "registered_name": null}, "bias_initializer": {"module": "keras.initializers", "class_name": "Zeros", "config": {}, "registered_name": null}, "kernel_regularizer": null, "bias_regularizer": null, "activity_regularizer": null, "kernel_constraint": null, "bias_constraint": null}, "name": "convnext_small_stage_1_block_0_depthwise_conv", "inbound_nodes": [{"args": [{"class_name": "__keras_tensor__", "config": {"shape": [null, 28, 28, 192], "dtype": "float32", "keras_history": ["convnext_small_downsampling_block_0", 0, 0]}}], "kwargs": {}}]}, {"class_name": "LayerNormalization", "config": {"name": "convnext_small_stage_1_block_0_layernorm", "trainable": false, "dtype": {"module": "keras", "class_name": "DTypePolicy", "config": {"name": "float32"}, "registered_name": null}, "axis": [-1], "epsilon": 1e-06, "center": true, "scale": true, "rms_scaling": false, "beta_initializer": {"module": "keras.initializers", "class_name": "Zeros", "config": {}, "registered_name": null}, "gamma_initializer": {"module": "keras.initializers", "class_name": "Ones", "config": {}, "registered_name": null}, "beta_regularizer": null, "gamma_regularizer": null, "beta_constraint": null, "gamma_constraint": null}, "name": "convnext_small_stage_1_block_0_layernorm", "inbound_nodes": [{"args": [{"class_name": "__keras_tensor__", "config": {"shape": [null, 28, 28, 192], "dtype": "float32", "keras_history": ["convnext_small_stage_1_block_0_depthwise_conv", 0, 0]}}], "kwargs": {}}]}, {"class_name": "Dense", "config": {"name": "convnext_small_stage_1_block_0_pointwise_conv_1", "trainable": false, "dtype": {"module": "keras", "class_name": "DTypePolicy", "config": {"name": "float32"}, "registered_name": null}, "units": 768, "activation": "linear", "use_bias": true, "kernel_initializer": {"module": "keras.initializers", "class_name": "GlorotUniform", "config": {"seed": null}, "registered_name": null}, "bias_initializer": {"module": "keras.initializers", "class_name": "Zeros", "config": {}, "registered_name": null}, "kernel_regularizer": null, "bias_regularizer": null, "kernel_constraint": null, "bias_constraint": null}, "name": "convnext_small_stage_1_block_0_pointwise_conv_1", "inbound_nodes": [{"args": [{"class_name": "__keras_tensor__", "config": {"shape": [null, 28, 28, 192], "dtype": "float32", "keras_history": ["convnext_small_stage_1_block_0_layernorm", 0, 0]}}], "kwargs": {}}]}, {"class_name": "Activation", "config": {"name": "convnext_small_stage_1_block_0_gelu", "trainable": false, "dtype": {"module": "keras", "class_name": "DTypePolicy", "config": {"name": "float32"}, "registered_name": null}, "activation": "gelu"}, "name": "convnext_small_stage_1_block_0_gelu", "inbound_nodes": [{"args": [{"class_name": "__keras_tensor__", "config": {"shape": [null, 28, 28, 768], "dtype": "float32", "keras_history": ["convnext_small_stage_1_block_0_pointwise_conv_1", 0, 0]}}], "kwargs": {}}]}, {"class_name": "Dense", "config": {"name": "convnext_small_stage_1_block_0_pointwise_conv_2", "trainable": false, "dtype": {"module": "keras", "class_name": "DTypePolicy", "config": {"name": "float32"}, "registered_name": null}, "units": 192, "activation": "linear", "use_bias": true, "kernel_initializer": {"module": "keras.initializers", "class_name": "GlorotUniform", "config": {"seed": null}, "registered_name": null}, "bias_initializer": {"module": "keras.initializers", "class_name": "Zeros", "config": {}, "registered_name": null}, "kernel_regularizer": null, "bias_regularizer": null, "kernel_constraint": null, "bias_constraint": null}, "name": "convnext_small_stage_1_block_0_pointwise_conv_2", "inbound_nodes": [{"args": [{"class_name": "__keras_tensor__", "config": {"shape": [null, 28, 28, 768], "dtype": "float32", "keras_history": ["convnext_small_stage_1_block_0_gelu", 0, 0]}}], "kwargs": {}}]}, {"class_name": "LayerScale", "config": {"name": "convnext_small_stage_1_block_0_layer_scale", "trainable": false, "dtype": {"module": "keras", "class_name": "DTypePolicy", "config": {"name": "float32"}, "registered_name": null}, "init_values": 1e-06, "projection_dim": 192}, "name": "convnext_small_stage_1_block_0_layer_scale", "inbound_nodes": [{"args": [{"class_name": "__keras_tensor__", "config": {"shape": [null, 28, 28, 192], "dtype": "float32", "keras_history": ["convnext_small_stage_1_block_0_pointwise_conv_2", 0, 0]}}], "kwargs": {}}]}, {"class_name": "Activation", "config": {"name": "convnext_small_stage_1_block_0_identity", "trainable": false, "dtype": {"module": "keras", "class_name": "DTypePolicy", "config": {"name": "float32"}, "registered_name": null}, "activation": "linear"}, "name": "convnext_small_stage_1_block_0_identity", "inbound_nodes": [{"args": [{"class_name": "__keras_tensor__", "config": {"shape": [null, 28, 28, 192], "dtype": "float32", "keras_history": ["convnext_small_stage_1_block_0_layer_scale", 0, 0]}}], "kwargs": {}}]}, {"class_name": "Add", "config": {"name": "add_3"}, "name": "add_3", "inbound_nodes": [{"args": [{"class_name": "__keras_tensor__", "config": {"shape": [null, 28, 28, 192], "dtype": "float32", "keras_history": ["convnext_small_downsampling_block_0", 0, 0]}}, {"class_name": "__keras_tensor__", "config": {"shape": [null, 28, 28, 192], "dtype": "float32", "keras_history": ["convnext_small_stage_1_block_0_identity", 0, 0]}}], "kwargs": {}}]}, {"class_name": "Conv2D", "config": {"name": "convnext_small_stage_1_block_1_depthwise_conv", "trainable": false, "dtype": {"module": "keras", "class_name": "DTypePolicy", "config": {"name": "float32"}, "registered_name": null}, "filters": 192, "kernel_size": [7, 7], "strides": [1, 1], "padding": "same", "data_format": "channels_last", "dilation_rate": [1, 1], "groups": 192, "activation": "linear", "use_bias": true, "kernel_initializer": {"module": "keras.initializers", "class_name": "GlorotUniform", "config": {"seed": null}, "registered_name": null}, "bias_initializer": {"module": "keras.initializers", "class_name": "Zeros", "config": {}, "registered_name": null}, "kernel_regularizer": null, "bias_regularizer": null, "activity_regularizer": null, "kernel_constraint": null, "bias_constraint": null}, "name": "convnext_small_stage_1_block_1_depthwise_conv", "inbound_nodes": [{"args": [{"class_name": "__keras_tensor__", "config": {"shape": [null, 28, 28, 192], "dtype": "float32", "keras_history": ["add_3", 0, 0]}}], "kwargs": {}}]}, {"class_name": "LayerNormalization", "config": {"name": "convnext_small_stage_1_block_1_layernorm", "trainable": false, "dtype": {"module": "keras", "class_name": "DTypePolicy", "config": {"name": "float32"}, "registered_name": null}, "axis": [-1], "epsilon": 1e-06, "center": true, "scale": true, "rms_scaling": false, "beta_initializer": {"module": "keras.initializers", "class_name": "Zeros", "config": {}, "registered_name": null}, "gamma_initializer": {"module": "keras.initializers", "class_name": "Ones", "config": {}, "registered_name": null}, "beta_regularizer": null, "gamma_regularizer": null, "beta_constraint": null, "gamma_constraint": null}, "name": "convnext_small_stage_1_block_1_layernorm", "inbound_nodes": [{"args": [{"class_name": "__keras_tensor__", "config": {"shape": [null, 28, 28, 192], "dtype": "float32", "keras_history": ["convnext_small_stage_1_block_1_depthwise_conv", 0, 0]}}], "kwargs": {}}]}, {"class_name": "Dense", "config": {"name": "convnext_small_stage_1_block_1_pointwise_conv_1", "trainable": false, "dtype": {"module": "keras", "class_name": "DTypePolicy", "config": {"name": "float32"}, "registered_name": null}, "units": 768, "activation": "linear", "use_bias": true, "kernel_initializer": {"module": "keras.initializers", "class_name": "GlorotUniform", "config": {"seed": null}, "registered_name": null}, "bias_initializer": {"module": "keras.initializers", "class_name": "Zeros", "config": {}, "registered_name": null}, "kernel_regularizer": null, "bias_regularizer": null, "kernel_constraint": null, "bias_constraint": null}, "name": "convnext_small_stage_1_block_1_pointwise_conv_1", "inbound_nodes": [{"args": [{"class_name": "__keras_tensor__", "config": {"shape": [null, 28, 28, 192], "dtype": "float32", "keras_history": ["convnext_small_stage_1_block_1_layernorm", 0, 0]}}], "kwargs": {}}]}, {"class_name": "Activation", "config": {"name": "convnext_small_stage_1_block_1_gelu", "trainable": false, "dtype": {"module": "keras", "class_name": "DTypePolicy", "config": {"name": "float32"}, "registered_name": null}, "activation": "gelu"}, "name": "convnext_small_stage_1_block_1_gelu", "inbound_nodes": [{"args": [{"class_name": "__keras_tensor__", "config": {"shape": [null, 28, 28, 768], "dtype": "float32", "keras_history": ["convnext_small_stage_1_block_1_pointwise_conv_1", 0, 0]}}], "kwargs": {}}]}, {"class_name": "Dense", "config": {"name": "convnext_small_stage_1_block_1_pointwise_conv_2", "trainable": false, "dtype": {"module": "keras", "class_name": "DTypePolicy", "config": {"name": "float32"}, "registered_name": null}, "units": 192, "activation": "linear", "use_bias": true, "kernel_initializer": {"module": "keras.initializers", "class_name": "GlorotUniform", "config": {"seed": null}, "registered_name": null}, "bias_initializer": {"module": "keras.initializers", "class_name": "Zeros", "config": {}, "registered_name": null}, "kernel_regularizer": null, "bias_regularizer": null, "kernel_constraint": null, "bias_constraint": null}, "name": "convnext_small_stage_1_block_1_pointwise_conv_2", "inbound_nodes": [{"args": [{"class_name": "__keras_tensor__", "config": {"shape": [null, 28, 28, 768], "dtype": "float32", "keras_history": ["convnext_small_stage_1_block_1_gelu", 0, 0]}}], "kwargs": {}}]}, {"class_name": "LayerScale", "config": {"name": "convnext_small_stage_1_block_1_layer_scale", "trainable": false, "dtype": {"module": "keras", "class_name": "DTypePolicy", "config": {"name": "float32"}, "registered_name": null}, "init_values": 1e-06, "projection_dim": 192}, "name": "convnext_small_stage_1_block_1_layer_scale", "inbound_nodes": [{"args": [{"class_name": "__keras_tensor__", "config": {"shape": [null, 28, 28, 192], "dtype": "float32", "keras_history": ["convnext_small_stage_1_block_1_pointwise_conv_2", 0, 0]}}], "kwargs": {}}]}, {"class_name": "Activation", "config": {"name": "convnext_small_stage_1_block_1_identity", "trainable": false, "dtype": {"module": "keras", "class_name": "DTypePolicy", "config": {"name": "float32"}, "registered_name": null}, "activation": "linear"}, "name": "convnext_small_stage_1_block_1_identity", "inbound_nodes": [{"args": [{"class_name": "__keras_tensor__", "config": {"shape": [null, 28, 28, 192], "dtype": "float32", "keras_history": ["convnext_small_stage_1_block_1_layer_scale", 0, 0]}}], "kwargs": {}}]}, {"class_name": "Add", "config": {"name": "add_4"}, "name": "add_4", "inbound_nodes": [{"args": [{"class_name": "__keras_tensor__", "config": {"shape": [null, 28, 28, 192], "dtype": "float32", "keras_history": ["add_3", 0, 0]}}, {"class_name": "__keras_tensor__", "config": {"shape": [null, 28, 28, 192], "dtype": "float32", "keras_history": ["convnext_small_stage_1_block_1_identity", 0, 0]}}], "kwargs": {}}]}, {"class_name": "Conv2D", "config": {"name": "convnext_small_stage_1_block_2_depthwise_conv", "trainable": false, "dtype": {"module": "keras", "class_name": "DTypePolicy", "config": {"name": "float32"}, "registered_name": null}, "filters": 192, "kernel_size": [7, 7], "strides": [1, 1], "padding": "same", "data_format": "channels_last", "dilation_rate": [1, 1], "groups": 192, "activation": "linear", "use_bias": true, "kernel_initializer": {"module": "keras.initializers", "class_name": "GlorotUniform", "config": {"seed": null}, "registered_name": null}, "bias_initializer": {"module": "keras.initializers", "class_name": "Zeros", "config": {}, "registered_name": null}, "kernel_regularizer": null, "bias_regularizer": null, "activity_regularizer": null, "kernel_constraint": null, "bias_constraint": null}, "name": "convnext_small_stage_1_block_2_depthwise_conv", "inbound_nodes": [{"args": [{"class_name": "__keras_tensor__", "config": {"shape": [null, 28, 28, 192], "dtype": "float32", "keras_history": ["add_4", 0, 0]}}], "kwargs": {}}]}, {"class_name": "LayerNormalization", "config": {"name": "convnext_small_stage_1_block_2_layernorm", "trainable": false, "dtype": {"module": "keras", "class_name": "DTypePolicy", "config": {"name": "float32"}, "registered_name": null}, "axis": [-1], "epsilon": 1e-06, "center": true, "scale": true, "rms_scaling": false, "beta_initializer": {"module": "keras.initializers", "class_name": "Zeros", "config": {}, "registered_name": null}, "gamma_initializer": {"module": "keras.initializers", "class_name": "Ones", "config": {}, "registered_name": null}, "beta_regularizer": null, "gamma_regularizer": null, "beta_constraint": null, "gamma_constraint": null}, "name": "convnext_small_stage_1_block_2_layernorm", "inbound_nodes": [{"args": [{"class_name": "__keras_tensor__", "config": {"shape": [null, 28, 28, 192], "dtype": "float32", "keras_history": ["convnext_small_stage_1_block_2_depthwise_conv", 0, 0]}}], "kwargs": {}}]}, {"class_name": "Dense", "config": {"name": "convnext_small_stage_1_block_2_pointwise_conv_1", "trainable": false, "dtype": {"module": "keras", "class_name": "DTypePolicy", "config": {"name": "float32"}, "registered_name": null}, "units": 768, "activation": "linear", "use_bias": true, "kernel_initializer": {"module": "keras.initializers", "class_name": "GlorotUniform", "config": {"seed": null}, "registered_name": null}, "bias_initializer": {"module": "keras.initializers", "class_name": "Zeros", "config": {}, "registered_name": null}, "kernel_regularizer": null, "bias_regularizer": null, "kernel_constraint": null, "bias_constraint": null}, "name": "convnext_small_stage_1_block_2_pointwise_conv_1", "inbound_nodes": [{"args": [{"class_name": "__keras_tensor__", "config": {"shape": [null, 28, 28, 192], "dtype": "float32", "keras_history": ["convnext_small_stage_1_block_2_layernorm", 0, 0]}}], "kwargs": {}}]}, {"class_name": "Activation", "config": {"name": "convnext_small_stage_1_block_2_gelu", "trainable": false, "dtype": {"module": "keras", "class_name": "DTypePolicy", "config": {"name": "float32"}, "registered_name": null}, "activation": "gelu"}, "name": "convnext_small_stage_1_block_2_gelu", "inbound_nodes": [{"args": [{"class_name": "__keras_tensor__", "config": {"shape": [null, 28, 28, 768], "dtype": "float32", "keras_history": ["convnext_small_stage_1_block_2_pointwise_conv_1", 0, 0]}}], "kwargs": {}}]}, {"class_name": "Dense", "config": {"name": "convnext_small_stage_1_block_2_pointwise_conv_2", "trainable": false, "dtype": {"module": "keras", "class_name": "DTypePolicy", "config": {"name": "float32"}, "registered_name": null}, "units": 192, "activation": "linear", "use_bias": true, "kernel_initializer": {"module": "keras.initializers", "class_name": "GlorotUniform", "config": {"seed": null}, "registered_name": null}, "bias_initializer": {"module": "keras.initializers", "class_name": "Zeros", "config": {}, "registered_name": null}, "kernel_regularizer": null, "bias_regularizer": null, "kernel_constraint": null, "bias_constraint": null}, "name": "convnext_small_stage_1_block_2_pointwise_conv_2", "inbound_nodes": [{"args": [{"class_name": "__keras_tensor__", "config": {"shape": [null, 28, 28, 768], "dtype": "float32", "keras_history": ["convnext_small_stage_1_block_2_gelu", 0, 0]}}], "kwargs": {}}]}, {"class_name": "LayerScale", "config": {"name": "convnext_small_stage_1_block_2_layer_scale", "trainable": false, "dtype": {"module": "keras", "class_name": "DTypePolicy", "config": {"name": "float32"}, "registered_name": null}, "init_values": 1e-06, "projection_dim": 192}, "name": "convnext_small_stage_1_block_2_layer_scale", "inbound_nodes": [{"args": [{"class_name": "__keras_tensor__", "config": {"shape": [null, 28, 28, 192], "dtype": "float32", "keras_history": ["convnext_small_stage_1_block_2_pointwise_conv_2", 0, 0]}}], "kwargs": {}}]}, {"class_name": "Activation", "config": {"name": "convnext_small_stage_1_block_2_identity", "trainable": false, "dtype": {"module": "keras", "class_name": "DTypePolicy", "config": {"name": "float32"}, "registered_name": null}, "activation": "linear"}, "name": "convnext_small_stage_1_block_2_identity", "inbound_nodes": [{"args": [{"class_name": "__keras_tensor__", "config": {"shape": [null, 28, 28, 192], "dtype": "float32", "keras_history": ["convnext_small_stage_1_block_2_layer_scale", 0, 0]}}], "kwargs": {}}]}, {"class_name": "Add", "config": {"name": "add_5"}, "name": "add_5", "inbound_nodes": [{"args": [{"class_name": "__keras_tensor__", "config": {"shape": [null, 28, 28, 192], "dtype": "float32", "keras_history": ["add_4", 0, 0]}}, {"class_name": "__keras_tensor__", "config": {"shape": [null, 28, 28, 192], "dtype": "float32", "keras_history": ["convnext_small_stage_1_block_2_identity", 0, 0]}}], "kwargs": {}}]}, {"class_name": "Sequential", "config": {"name": "convnext_small_downsampling_block_1", "trainable": false, "dtype": {"module": "keras", "class_name": "DTypePolicy", "config": {"name": "float32"}, "registered_name": null}, "layers": [{"class_name": "InputLayer", "config": {"batch_shape": [null, 28, 28, 192], "dtype": "float32", "sparse": false, "name": "input_layer_3"}}, {"class_name": "LayerNormalization", "config": {"name": "convnext_small_downsampling_layernorm_1", "trainable": false, "dtype": {"module": "keras", "class_name": "DTypePolicy", "config": {"name": "float32"}, "registered_name": null}, "axis": [-1], "epsilon": 1e-06, "center": true, "scale": true, "rms_scaling": false, "beta_initializer": {"module": "keras.initializers", "class_name": "Zeros", "config": {}, "registered_name": null}, "gamma_initializer": {"module": "keras.initializers", "class_name": "Ones", "config": {}, "registered_name": null}, "beta_regularizer": null, "gamma_regularizer": null, "beta_constraint": null, "gamma_constraint": null}}, {"class_name": "Conv2D", "config": {"name": "convnext_small_downsampling_conv_1", "trainable": false, "dtype": {"module": "keras", "class_name": "DTypePolicy", "config": {"name": "float32"}, "registered_name": null}, "filters": 384, "kernel_size": [2, 2], "strides": [2, 2], "padding": "valid", "data_format": "channels_last", "dilation_rate": [1, 1], "groups": 1, "activation": "linear", "use_bias": true, "kernel_initializer": {"module": "keras.initializers", "class_name": "GlorotUniform", "config": {"seed": null}, "registered_name": null}, "bias_initializer": {"module": "keras.initializers", "class_name": "Zeros", "config": {}, "registered_name": null}, "kernel_regularizer": null, "bias_regularizer": null, "activity_regularizer": null, "kernel_constraint": null, "bias_constraint": null}}], "build_input_shape": [null, 28, 28, 192]}, "name": "convnext_small_downsampling_block_1", "inbound_nodes": [{"args": [{"class_name": "__keras_tensor__", "config": {"shape": [null, 28, 28, 192], "dtype": "float32", "keras_history": ["add_5", 0, 0]}}], "kwargs": {"mask": null}}]}, {"class_name": "Conv2D", "config": {"name": "convnext_small_stage_2_block_0_depthwise_conv", "trainable": false, "dtype": {"module": "keras", "class_name": "DTypePolicy", "config": {"name": "float32"}, "registered_name": null}, "filters": 384, "kernel_size": [7, 7], "strides": [1, 1], "padding": "same", "data_format": "channels_last", "dilation_rate": [1, 1], "groups": 384, "activation": "linear", "use_bias": true, "kernel_initializer": {"module": "keras.initializers", "class_name": "GlorotUniform", "config": {"seed": null}, "registered_name": null}, "bias_initializer": {"module": "keras.initializers", "class_name": "Zeros", "config": {}, "registered_name": null}, "kernel_regularizer": null, "bias_regularizer": null, "activity_regularizer": null, "kernel_constraint": null, "bias_constraint": null}, "name": "convnext_small_stage_2_block_0_depthwise_conv", "inbound_nodes": [{"args": [{"class_name": "__keras_tensor__", "config": {"shape": [null, 14, 14, 384], "dtype": "float32", "keras_history": ["convnext_small_downsampling_block_1", 0, 0]}}], "kwargs": {}}]}, {"class_name": "LayerNormalization", "config": {"name": "convnext_small_stage_2_block_0_layernorm", "trainable": false, "dtype": {"module": "keras", "class_name": "DTypePolicy", "config": {"name": "float32"}, "registered_name": null}, "axis": [-1], "epsilon": 1e-06, "center": true, "scale": true, "rms_scaling": false, "beta_initializer": {"module": "keras.initializers", "class_name": "Zeros", "config": {}, "registered_name": null}, "gamma_initializer": {"module": "keras.initializers", "class_name": "Ones", "config": {}, "registered_name": null}, "beta_regularizer": null, "gamma_regularizer": null, "beta_constraint": null, "gamma_constraint": null}, "name": "convnext_small_stage_2_block_0_layernorm", "inbound_nodes": [{"args": [{"class_name": "__keras_tensor__", "config": {"shape": [null, 14, 14, 384], "dtype": "float32", "keras_history": ["convnext_small_stage_2_block_0_depthwise_conv", 0, 0]}}], "kwargs": {}}]}, {"class_name": "Dense", "config": {"name": "convnext_small_stage_2_block_0_pointwise_conv_1", "trainable": false, "dtype": {"module": "keras", "class_name": "DTypePolicy", "config": {"name": "float32"}, "registered_name": null}, "units": 1536, "activation": "linear", "use_bias": true, "kernel_initializer": {"module": "keras.initializers", "class_name": "GlorotUniform", "config": {"seed": null}, "registered_name": null}, "bias_initializer": {"module": "keras.initializers", "class_name": "Zeros", "config": {}, "registered_name": null}, "kernel_regularizer": null, "bias_regularizer": null, "kernel_constraint": null, "bias_constraint": null}, "name": "convnext_small_stage_2_block_0_pointwise_conv_1", "inbound_nodes": [{"args": [{"class_name": "__keras_tensor__", "config": {"shape": [null, 14, 14, 384], "dtype": "float32", "keras_history": ["convnext_small_stage_2_block_0_layernorm", 0, 0]}}], "kwargs": {}}]}, {"class_name": "Activation", "config": {"name": "convnext_small_stage_2_block_0_gelu", "trainable": false, "dtype": {"module": "keras", "class_name": "DTypePolicy", "config": {"name": "float32"}, "registered_name": null}, "activation": "gelu"}, "name": "convnext_small_stage_2_block_0_gelu", "inbound_nodes": [{"args": [{"class_name": "__keras_tensor__", "config": {"shape": [null, 14, 14, 1536], "dtype": "float32", "keras_history": ["convnext_small_stage_2_block_0_pointwise_conv_1", 0, 0]}}], "kwargs": {}}]}, {"class_name": "Dense", "config": {"name": "convnext_small_stage_2_block_0_pointwise_conv_2", "trainable": false, "dtype": {"module": "keras", "class_name": "DTypePolicy", "config": {"name": "float32"}, "registered_name": null}, "units": 384, "activation": "linear", "use_bias": true, "kernel_initializer": {"module": "keras.initializers", "class_name": "GlorotUniform", "config": {"seed": null}, "registered_name": null}, "bias_initializer": {"module": "keras.initializers", "class_name": "Zeros", "config": {}, "registered_name": null}, "kernel_regularizer": null, "bias_regularizer": null, "kernel_constraint": null, "bias_constraint": null}, "name": "convnext_small_stage_2_block_0_pointwise_conv_2", "inbound_nodes": [{"args": [{"class_name": "__keras_tensor__", "config": {"shape": [null, 14, 14, 1536], "dtype": "float32", "keras_history": ["convnext_small_stage_2_block_0_gelu", 0, 0]}}], "kwargs": {}}]}, {"class_name": "LayerScale", "config": {"name": "convnext_small_stage_2_block_0_layer_scale", "trainable": false, "dtype": {"module": "keras", "class_name": "DTypePolicy", "config": {"name": "float32"}, "registered_name": null}, "init_values": 1e-06, "projection_dim": 384}, "name": "convnext_small_stage_2_block_0_layer_scale", "inbound_nodes": [{"args": [{"class_name": "__keras_tensor__", "config": {"shape": [null, 14, 14, 384], "dtype": "float32", "keras_history": ["convnext_small_stage_2_block_0_pointwise_conv_2", 0, 0]}}], "kwargs": {}}]}, {"class_name": "Activation", "config": {"name": "convnext_small_stage_2_block_0_identity", "trainable": false, "dtype": {"module": "keras", "class_name": "DTypePolicy", "config": {"name": "float32"}, "registered_name": null}, "activation": "linear"}, "name": "convnext_small_stage_2_block_0_identity", "inbound_nodes": [{"args": [{"class_name": "__keras_tensor__", "config": {"shape": [null, 14, 14, 384], "dtype": "float32", "keras_history": ["convnext_small_stage_2_block_0_layer_scale", 0, 0]}}], "kwargs": {}}]}, {"class_name": "Add", "config": {"name": "add_6"}, "name": "add_6", "inbound_nodes": [{"args": [{"class_name": "__keras_tensor__", "config": {"shape": [null, 14, 14, 384], "dtype": "float32", "keras_history": ["convnext_small_downsampling_block_1", 0, 0]}}, {"class_name": "__keras_tensor__", "config": {"shape": [null, 14, 14, 384], "dtype": "float32", "keras_history": ["convnext_small_stage_2_block_0_identity", 0, 0]}}], "kwargs": {}}]}, {"class_name": "Conv2D", "config": {"name": "convnext_small_stage_2_block_1_depthwise_conv", "trainable": false, "dtype": {"module": "keras", "class_name": "DTypePolicy", "config": {"name": "float32"}, "registered_name": null}, "filters": 384, "kernel_size": [7, 7], "strides": [1, 1], "padding": "same", "data_format": "channels_last", "dilation_rate": [1, 1], "groups": 384, "activation": "linear", "use_bias": true, "kernel_initializer": {"module": "keras.initializers", "class_name": "GlorotUniform", "config": {"seed": null}, "registered_name": null}, "bias_initializer": {"module": "keras.initializers", "class_name": "Zeros", "config": {}, "registered_name": null}, "kernel_regularizer": null, "bias_regularizer": null, "activity_regularizer": null, "kernel_constraint": null, "bias_constraint": null}, "name": "convnext_small_stage_2_block_1_depthwise_conv", "inbound_nodes": [{"args": [{"class_name": "__keras_tensor__", "config": {"shape": [null, 14, 14, 384], "dtype": "float32", "keras_history": ["add_6", 0, 0]}}], "kwargs": {}}]}, {"class_name": "LayerNormalization", "config": {"name": "convnext_small_stage_2_block_1_layernorm", "trainable": false, "dtype": {"module": "keras", "class_name": "DTypePolicy", "config": {"name": "float32"}, "registered_name": null}, "axis": [-1], "epsilon": 1e-06, "center": true, "scale": true, "rms_scaling": false, "beta_initializer": {"module": "keras.initializers", "class_name": "Zeros", "config": {}, "registered_name": null}, "gamma_initializer": {"module": "keras.initializers", "class_name": "Ones", "config": {}, "registered_name": null}, "beta_regularizer": null, "gamma_regularizer": null, "beta_constraint": null, "gamma_constraint": null}, "name": "convnext_small_stage_2_block_1_layernorm", "inbound_nodes": [{"args": [{"class_name": "__keras_tensor__", "config": {"shape": [null, 14, 14, 384], "dtype": "float32", "keras_history": ["convnext_small_stage_2_block_1_depthwise_conv", 0, 0]}}], "kwargs": {}}]}, {"class_name": "Dense", "config": {"name": "convnext_small_stage_2_block_1_pointwise_conv_1", "trainable": false, "dtype": {"module": "keras", "class_name": "DTypePolicy", "config": {"name": "float32"}, "registered_name": null}, "units": 1536, "activation": "linear", "use_bias": true, "kernel_initializer": {"module": "keras.initializers", "class_name": "GlorotUniform", "config": {"seed": null}, "registered_name": null}, "bias_initializer": {"module": "keras.initializers", "class_name": "Zeros", "config": {}, "registered_name": null}, "kernel_regularizer": null, "bias_regularizer": null, "kernel_constraint": null, "bias_constraint": null}, "name": "convnext_small_stage_2_block_1_pointwise_conv_1", "inbound_nodes": [{"args": [{"class_name": "__keras_tensor__", "config": {"shape": [null, 14, 14, 384], "dtype": "float32", "keras_history": ["convnext_small_stage_2_block_1_layernorm", 0, 0]}}], "kwargs": {}}]}, {"class_name": "Activation", "config": {"name": "convnext_small_stage_2_block_1_gelu", "trainable": false, "dtype": {"module": "keras", "class_name": "DTypePolicy", "config": {"name": "float32"}, "registered_name": null}, "activation": "gelu"}, "name": "convnext_small_stage_2_block_1_gelu", "inbound_nodes": [{"args": [{"class_name": "__keras_tensor__", "config": {"shape": [null, 14, 14, 1536], "dtype": "float32", "keras_history": ["convnext_small_stage_2_block_1_pointwise_conv_1", 0, 0]}}], "kwargs": {}}]}, {"class_name": "Dense", "config": {"name": "convnext_small_stage_2_block_1_pointwise_conv_2", "trainable": false, "dtype": {"module": "keras", "class_name": "DTypePolicy", "config": {"name": "float32"}, "registered_name": null}, "units": 384, "activation": "linear", "use_bias": true, "kernel_initializer": {"module": "keras.initializers", "class_name": "GlorotUniform", "config": {"seed": null}, "registered_name": null}, "bias_initializer": {"module": "keras.initializers", "class_name": "Zeros", "config": {}, "registered_name": null}, "kernel_regularizer": null, "bias_regularizer": null, "kernel_constraint": null, "bias_constraint": null}, "name": "convnext_small_stage_2_block_1_pointwise_conv_2", "inbound_nodes": [{"args": [{"class_name": "__keras_tensor__", "config": {"shape": [null, 14, 14, 1536], "dtype": "float32", "keras_history": ["convnext_small_stage_2_block_1_gelu", 0, 0]}}], "kwargs": {}}]}, {"class_name": "LayerScale", "config": {"name": "convnext_small_stage_2_block_1_layer_scale", "trainable": false, "dtype": {"module": "keras", "class_name": "DTypePolicy", "config": {"name": "float32"}, "registered_name": null}, "init_values": 1e-06, "projection_dim": 384}, "name": "convnext_small_stage_2_block_1_layer_scale", "inbound_nodes": [{"args": [{"class_name": "__keras_tensor__", "config": {"shape": [null, 14, 14, 384], "dtype": "float32", "keras_history": ["convnext_small_stage_2_block_1_pointwise_conv_2", 0, 0]}}], "kwargs": {}}]}, {"class_name": "Activation", "config": {"name": "convnext_small_stage_2_block_1_identity", "trainable": false, "dtype": {"module": "keras", "class_name": "DTypePolicy", "config": {"name": "float32"}, "registered_name": null}, "activation": "linear"}, "name": "convnext_small_stage_2_block_1_identity", "inbound_nodes": [{"args": [{"class_name": "__keras_tensor__", "config": {"shape": [null, 14, 14, 384], "dtype": "float32", "keras_history": ["convnext_small_stage_2_block_1_layer_scale", 0, 0]}}], "kwargs": {}}]}, {"class_name": "Add", "config": {"name": "add_7"}, "name": "add_7", "inbound_nodes": [{"args": [{"class_name": "__keras_tensor__", "config": {"shape": [null, 14, 14, 384], "dtype": "float32", "keras_history": ["add_6", 0, 0]}}, {"class_name": "__keras_tensor__", "config": {"shape": [null, 14, 14, 384], "dtype": "float32", "keras_history": ["convnext_small_stage_2_block_1_identity", 0, 0]}}], "kwargs": {}}]}, {"class_name": "Conv2D", "config": {"name": "convnext_small_stage_2_block_2_depthwise_conv", "trainable": false, "dtype": {"module": "keras", "class_name": "DTypePolicy", "config": {"name": "float32"}, "registered_name": null}, "filters": 384, "kernel_size": [7, 7], "strides": [1, 1], "padding": "same", "data_format": "channels_last", "dilation_rate": [1, 1], "groups": 384, "activation": "linear", "use_bias": true, "kernel_initializer": {"module": "keras.initializers", "class_name": "GlorotUniform", "config": {"seed": null}, "registered_name": null}, "bias_initializer": {"module": "keras.initializers", "class_name": "Zeros", "config": {}, "registered_name": null}, "kernel_regularizer": null, "bias_regularizer": null, "activity_regularizer": null, "kernel_constraint": null, "bias_constraint": null}, "name": "convnext_small_stage_2_block_2_depthwise_conv", "inbound_nodes": [{"args": [{"class_name": "__keras_tensor__", "config": {"shape": [null, 14, 14, 384], "dtype": "float32", "keras_history": ["add_7", 0, 0]}}], "kwargs": {}}]}, {"class_name": "LayerNormalization", "config": {"name": "convnext_small_stage_2_block_2_layernorm", "trainable": false, "dtype": {"module": "keras", "class_name": "DTypePolicy", "config": {"name": "float32"}, "registered_name": null}, "axis": [-1], "epsilon": 1e-06, "center": true, "scale": true, "rms_scaling": false, "beta_initializer": {"module": "keras.initializers", "class_name": "Zeros", "config": {}, "registered_name": null}, "gamma_initializer": {"module": "keras.initializers", "class_name": "Ones", "config": {}, "registered_name": null}, "beta_regularizer": null, "gamma_regularizer": null, "beta_constraint": null, "gamma_constraint": null}, "name": "convnext_small_stage_2_block_2_layernorm", "inbound_nodes": [{"args": [{"class_name": "__keras_tensor__", "config": {"shape": [null, 14, 14, 384], "dtype": "float32", "keras_history": ["convnext_small_stage_2_block_2_depthwise_conv", 0, 0]}}], "kwargs": {}}]}, {"class_name": "Dense", "config": {"name": "convnext_small_stage_2_block_2_pointwise_conv_1", "trainable": false, "dtype": {"module": "keras", "class_name": "DTypePolicy", "config": {"name": "float32"}, "registered_name": null}, "units": 1536, "activation": "linear", "use_bias": true, "kernel_initializer": {"module": "keras.initializers", "class_name": "GlorotUniform", "config": {"seed": null}, "registered_name": null}, "bias_initializer": {"module": "keras.initializers", "class_name": "Zeros", "config": {}, "registered_name": null}, "kernel_regularizer": null, "bias_regularizer": null, "kernel_constraint": null, "bias_constraint": null}, "name": "convnext_small_stage_2_block_2_pointwise_conv_1", "inbound_nodes": [{"args": [{"class_name": "__keras_tensor__", "config": {"shape": [null, 14, 14, 384], "dtype": "float32", "keras_history": ["convnext_small_stage_2_block_2_layernorm", 0, 0]}}], "kwargs": {}}]}, {"class_name": "Activation", "config": {"name": "convnext_small_stage_2_block_2_gelu", "trainable": false, "dtype": {"module": "keras", "class_name": "DTypePolicy", "config": {"name": "float32"}, "registered_name": null}, "activation": "gelu"}, "name": "convnext_small_stage_2_block_2_gelu", "inbound_nodes": [{"args": [{"class_name": "__keras_tensor__", "config": {"shape": [null, 14, 14, 1536], "dtype": "float32", "keras_history": ["convnext_small_stage_2_block_2_pointwise_conv_1", 0, 0]}}], "kwargs": {}}]}, {"class_name": "Dense", "config": {"name": "convnext_small_stage_2_block_2_pointwise_conv_2", "trainable": false, "dtype": {"module": "keras", "class_name": "DTypePolicy", "config": {"name": "float32"}, "registered_name": null}, "units": 384, "activation": "linear", "use_bias": true, "kernel_initializer": {"module": "keras.initializers", "class_name": "GlorotUniform", "config": {"seed": null}, "registered_name": null}, "bias_initializer": {"module": "keras.initializers", "class_name": "Zeros", "config": {}, "registered_name": null}, "kernel_regularizer": null, "bias_regularizer": null, "kernel_constraint": null, "bias_constraint": null}, "name": "convnext_small_stage_2_block_2_pointwise_conv_2", "inbound_nodes": [{"args": [{"class_name": "__keras_tensor__", "config": {"shape": [null, 14, 14, 1536], "dtype": "float32", "keras_history": ["convnext_small_stage_2_block_2_gelu", 0, 0]}}], "kwargs": {}}]}, {"class_name": "LayerScale", "config": {"name": "convnext_small_stage_2_block_2_layer_scale", "trainable": false, "dtype": {"module": "keras", "class_name": "DTypePolicy", "config": {"name": "float32"}, "registered_name": null}, "init_values": 1e-06, "projection_dim": 384}, "name": "convnext_small_stage_2_block_2_layer_scale", "inbound_nodes": [{"args": [{"class_name": "__keras_tensor__", "config": {"shape": [null, 14, 14, 384], "dtype": "float32", "keras_history": ["convnext_small_stage_2_block_2_pointwise_conv_2", 0, 0]}}], "kwargs": {}}]}, {"class_name": "Activation", "config": {"name": "convnext_small_stage_2_block_2_identity", "trainable": false, "dtype": {"module": "keras", "class_name": "DTypePolicy", "config": {"name": "float32"}, "registered_name": null}, "activation": "linear"}, "name": "convnext_small_stage_2_block_2_identity", "inbound_nodes": [{"args": [{"class_name": "__keras_tensor__", "config": {"shape": [null, 14, 14, 384], "dtype": "float32", "keras_history": ["convnext_small_stage_2_block_2_layer_scale", 0, 0]}}], "kwargs": {}}]}, {"class_name": "Add", "config": {"name": "add_8"}, "name": "add_8", "inbound_nodes": [{"args": [{"class_name": "__keras_tensor__", "config": {"shape": [null, 14, 14, 384], "dtype": "float32", "keras_history": ["add_7", 0, 0]}}, {"class_name": "__keras_tensor__", "config": {"shape": [null, 14, 14, 384], "dtype": "float32", "keras_history": ["convnext_small_stage_2_block_2_identity", 0, 0]}}], "kwargs": {}}]}, {"class_name": "Conv2D", "config": {"name": "convnext_small_stage_2_block_3_depthwise_conv", "trainable": false, "dtype": {"module": "keras", "class_name": "DTypePolicy", "config": {"name": "float32"}, "registered_name": null}, "filters": 384, "kernel_size": [7, 7], "strides": [1, 1], "padding": "same", "data_format": "channels_last", "dilation_rate": [1, 1], "groups": 384, "activation": "linear", "use_bias": true, "kernel_initializer": {"module": "keras.initializers", "class_name": "GlorotUniform", "config": {"seed": null}, "registered_name": null}, "bias_initializer": {"module": "keras.initializers", "class_name": "Zeros", "config": {}, "registered_name": null}, "kernel_regularizer": null, "bias_regularizer": null, "activity_regularizer": null, "kernel_constraint": null, "bias_constraint": null}, "name": "convnext_small_stage_2_block_3_depthwise_conv", "inbound_nodes": [{"args": [{"class_name": "__keras_tensor__", "config": {"shape": [null, 14, 14, 384], "dtype": "float32", "keras_history": ["add_8", 0, 0]}}], "kwargs": {}}]}, {"class_name": "LayerNormalization", "config": {"name": "convnext_small_stage_2_block_3_layernorm", "trainable": false, "dtype": {"module": "keras", "class_name": "DTypePolicy", "config": {"name": "float32"}, "registered_name": null}, "axis": [-1], "epsilon": 1e-06, "center": true, "scale": true, "rms_scaling": false, "beta_initializer": {"module": "keras.initializers", "class_name": "Zeros", "config": {}, "registered_name": null}, "gamma_initializer": {"module": "keras.initializers", "class_name": "Ones", "config": {}, "registered_name": null}, "beta_regularizer": null, "gamma_regularizer": null, "beta_constraint": null, "gamma_constraint": null}, "name": "convnext_small_stage_2_block_3_layernorm", "inbound_nodes": [{"args": [{"class_name": "__keras_tensor__", "config": {"shape": [null, 14, 14, 384], "dtype": "float32", "keras_history": ["convnext_small_stage_2_block_3_depthwise_conv", 0, 0]}}], "kwargs": {}}]}, {"class_name": "Dense", "config": {"name": "convnext_small_stage_2_block_3_pointwise_conv_1", "trainable": false, "dtype": {"module": "keras", "class_name": "DTypePolicy", "config": {"name": "float32"}, "registered_name": null}, "units": 1536, "activation": "linear", "use_bias": true, "kernel_initializer": {"module": "keras.initializers", "class_name": "GlorotUniform", "config": {"seed": null}, "registered_name": null}, "bias_initializer": {"module": "keras.initializers", "class_name": "Zeros", "config": {}, "registered_name": null}, "kernel_regularizer": null, "bias_regularizer": null, "kernel_constraint": null, "bias_constraint": null}, "name": "convnext_small_stage_2_block_3_pointwise_conv_1", "inbound_nodes": [{"args": [{"class_name": "__keras_tensor__", "config": {"shape": [null, 14, 14, 384], "dtype": "float32", "keras_history": ["convnext_small_stage_2_block_3_layernorm", 0, 0]}}], "kwargs": {}}]}, {"class_name": "Activation", "config": {"name": "convnext_small_stage_2_block_3_gelu", "trainable": false, "dtype": {"module": "keras", "class_name": "DTypePolicy", "config": {"name": "float32"}, "registered_name": null}, "activation": "gelu"}, "name": "convnext_small_stage_2_block_3_gelu", "inbound_nodes": [{"args": [{"class_name": "__keras_tensor__", "config": {"shape": [null, 14, 14, 1536], "dtype": "float32", "keras_history": ["convnext_small_stage_2_block_3_pointwise_conv_1", 0, 0]}}], "kwargs": {}}]}, {"class_name": "Dense", "config": {"name": "convnext_small_stage_2_block_3_pointwise_conv_2", "trainable": false, "dtype": {"module": "keras", "class_name": "DTypePolicy", "config": {"name": "float32"}, "registered_name": null}, "units": 384, "activation": "linear", "use_bias": true, "kernel_initializer": {"module": "keras.initializers", "class_name": "GlorotUniform", "config": {"seed": null}, "registered_name": null}, "bias_initializer": {"module": "keras.initializers", "class_name": "Zeros", "config": {}, "registered_name": null}, "kernel_regularizer": null, "bias_regularizer": null, "kernel_constraint": null, "bias_constraint": null}, "name": "convnext_small_stage_2_block_3_pointwise_conv_2", "inbound_nodes": [{"args": [{"class_name": "__keras_tensor__", "config": {"shape": [null, 14, 14, 1536], "dtype": "float32", "keras_history": ["convnext_small_stage_2_block_3_gelu", 0, 0]}}], "kwargs": {}}]}, {"class_name": "LayerScale", "config": {"name": "convnext_small_stage_2_block_3_layer_scale", "trainable": false, "dtype": {"module": "keras", "class_name": "DTypePolicy", "config": {"name": "float32"}, "registered_name": null}, "init_values": 1e-06, "projection_dim": 384}, "name": "convnext_small_stage_2_block_3_layer_scale", "inbound_nodes": [{"args": [{"class_name": "__keras_tensor__", "config": {"shape": [null, 14, 14, 384], "dtype": "float32", "keras_history": ["convnext_small_stage_2_block_3_pointwise_conv_2", 0, 0]}}], "kwargs": {}}]}, {"class_name": "Activation", "config": {"name": "convnext_small_stage_2_block_3_identity", "trainable": false, "dtype": {"module": "keras", "class_name": "DTypePolicy", "config": {"name": "float32"}, "registered_name": null}, "activation": "linear"}, "name": "convnext_small_stage_2_block_3_identity", "inbound_nodes": [{"args": [{"class_name": "__keras_tensor__", "config": {"shape": [null, 14, 14, 384], "dtype": "float32", "keras_history": ["convnext_small_stage_2_block_3_layer_scale", 0, 0]}}], "kwargs": {}}]}, {"class_name": "Add", "config": {"name": "add_9"}, "name": "add_9", "inbound_nodes": [{"args": [{"class_name": "__keras_tensor__", "config": {"shape": [null, 14, 14, 384], "dtype": "float32", "keras_history": ["add_8", 0, 0]}}, {"class_name": "__keras_tensor__", "config": {"shape": [null, 14, 14, 384], "dtype": "float32", "keras_history": ["convnext_small_stage_2_block_3_identity", 0, 0]}}], "kwargs": {}}]}, {"class_name": "Conv2D", "config": {"name": "convnext_small_stage_2_block_4_depthwise_conv", "trainable": false, "dtype": {"module": "keras", "class_name": "DTypePolicy", "config": {"name": "float32"}, "registered_name": null}, "filters": 384, "kernel_size": [7, 7], "strides": [1, 1], "padding": "same", "data_format": "channels_last", "dilation_rate": [1, 1], "groups": 384, "activation": "linear", "use_bias": true, "kernel_initializer": {"module": "keras.initializers", "class_name": "GlorotUniform", "config": {"seed": null}, "registered_name": null}, "bias_initializer": {"module": "keras.initializers", "class_name": "Zeros", "config": {}, "registered_name": null}, "kernel_regularizer": null, "bias_regularizer": null, "activity_regularizer": null, "kernel_constraint": null, "bias_constraint": null}, "name": "convnext_small_stage_2_block_4_depthwise_conv", "inbound_nodes": [{"args": [{"class_name": "__keras_tensor__", "config": {"shape": [null, 14, 14, 384], "dtype": "float32", "keras_history": ["add_9", 0, 0]}}], "kwargs": {}}]}, {"class_name": "LayerNormalization", "config": {"name": "convnext_small_stage_2_block_4_layernorm", "trainable": false, "dtype": {"module": "keras", "class_name": "DTypePolicy", "config": {"name": "float32"}, "registered_name": null}, "axis": [-1], "epsilon": 1e-06, "center": true, "scale": true, "rms_scaling": false, "beta_initializer": {"module": "keras.initializers", "class_name": "Zeros", "config": {}, "registered_name": null}, "gamma_initializer": {"module": "keras.initializers", "class_name": "Ones", "config": {}, "registered_name": null}, "beta_regularizer": null, "gamma_regularizer": null, "beta_constraint": null, "gamma_constraint": null}, "name": "convnext_small_stage_2_block_4_layernorm", "inbound_nodes": [{"args": [{"class_name": "__keras_tensor__", "config": {"shape": [null, 14, 14, 384], "dtype": "float32", "keras_history": ["convnext_small_stage_2_block_4_depthwise_conv", 0, 0]}}], "kwargs": {}}]}, {"class_name": "Dense", "config": {"name": "convnext_small_stage_2_block_4_pointwise_conv_1", "trainable": false, "dtype": {"module": "keras", "class_name": "DTypePolicy", "config": {"name": "float32"}, "registered_name": null}, "units": 1536, "activation": "linear", "use_bias": true, "kernel_initializer": {"module": "keras.initializers", "class_name": "GlorotUniform", "config": {"seed": null}, "registered_name": null}, "bias_initializer": {"module": "keras.initializers", "class_name": "Zeros", "config": {}, "registered_name": null}, "kernel_regularizer": null, "bias_regularizer": null, "kernel_constraint": null, "bias_constraint": null}, "name": "convnext_small_stage_2_block_4_pointwise_conv_1", "inbound_nodes": [{"args": [{"class_name": "__keras_tensor__", "config": {"shape": [null, 14, 14, 384], "dtype": "float32", "keras_history": ["convnext_small_stage_2_block_4_layernorm", 0, 0]}}], "kwargs": {}}]}, {"class_name": "Activation", "config": {"name": "convnext_small_stage_2_block_4_gelu", "trainable": false, "dtype": {"module": "keras", "class_name": "DTypePolicy", "config": {"name": "float32"}, "registered_name": null}, "activation": "gelu"}, "name": "convnext_small_stage_2_block_4_gelu", "inbound_nodes": [{"args": [{"class_name": "__keras_tensor__", "config": {"shape": [null, 14, 14, 1536], "dtype": "float32", "keras_history": ["convnext_small_stage_2_block_4_pointwise_conv_1", 0, 0]}}], "kwargs": {}}]}, {"class_name": "Dense", "config": {"name": "convnext_small_stage_2_block_4_pointwise_conv_2", "trainable": false, "dtype": {"module": "keras", "class_name": "DTypePolicy", "config": {"name": "float32"}, "registered_name": null}, "units": 384, "activation": "linear", "use_bias": true, "kernel_initializer": {"module": "keras.initializers", "class_name": "GlorotUniform", "config": {"seed": null}, "registered_name": null}, "bias_initializer": {"module": "keras.initializers", "class_name": "Zeros", "config": {}, "registered_name": null}, "kernel_regularizer": null, "bias_regularizer": null, "kernel_constraint": null, "bias_constraint": null}, "name": "convnext_small_stage_2_block_4_pointwise_conv_2", "inbound_nodes": [{"args": [{"class_name": "__keras_tensor__", "config": {"shape": [null, 14, 14, 1536], "dtype": "float32", "keras_history": ["convnext_small_stage_2_block_4_gelu", 0, 0]}}], "kwargs": {}}]}, {"class_name": "LayerScale", "config": {"name": "convnext_small_stage_2_block_4_layer_scale", "trainable": false, "dtype": {"module": "keras", "class_name": "DTypePolicy", "config": {"name": "float32"}, "registered_name": null}, "init_values": 1e-06, "projection_dim": 384}, "name": "convnext_small_stage_2_block_4_layer_scale", "inbound_nodes": [{"args": [{"class_name": "__keras_tensor__", "config": {"shape": [null, 14, 14, 384], "dtype": "float32", "keras_history": ["convnext_small_stage_2_block_4_pointwise_conv_2", 0, 0]}}], "kwargs": {}}]}, {"class_name": "Activation", "config": {"name": "convnext_small_stage_2_block_4_identity", "trainable": false, "dtype": {"module": "keras", "class_name": "DTypePolicy", "config": {"name": "float32"}, "registered_name": null}, "activation": "linear"}, "name": "convnext_small_stage_2_block_4_identity", "inbound_nodes": [{"args": [{"class_name": "__keras_tensor__", "config": {"shape": [null, 14, 14, 384], "dtype": "float32", "keras_history": ["convnext_small_stage_2_block_4_layer_scale", 0, 0]}}], "kwargs": {}}]}, {"class_name": "Add", "config": {"name": "add_10"}, "name": "add_10", "inbound_nodes": [{"args": [{"class_name": "__keras_tensor__", "config": {"shape": [null, 14, 14, 384], "dtype": "float32", "keras_history": ["add_9", 0, 0]}}, {"class_name": "__keras_tensor__", "config": {"shape": [null, 14, 14, 384], "dtype": "float32", "keras_history": ["convnext_small_stage_2_block_4_identity", 0, 0]}}], "kwargs": {}}]}, {"class_name": "Conv2D", "config": {"name": "convnext_small_stage_2_block_5_depthwise_conv", "trainable": false, "dtype": {"module": "keras", "class_name": "DTypePolicy", "config": {"name": "float32"}, "registered_name": null}, "filters": 384, "kernel_size": [7, 7], "strides": [1, 1], "padding": "same", "data_format": "channels_last", "dilation_rate": [1, 1], "groups": 384, "activation": "linear", "use_bias": true, "kernel_initializer": {"module": "keras.initializers", "class_name": "GlorotUniform", "config": {"seed": null}, "registered_name": null}, "bias_initializer": {"module": "keras.initializers", "class_name": "Zeros", "config": {}, "registered_name": null}, "kernel_regularizer": null, "bias_regularizer": null, "activity_regularizer": null, "kernel_constraint": null, "bias_constraint": null}, "name": "convnext_small_stage_2_block_5_depthwise_conv", "inbound_nodes": [{"args": [{"class_name": "__keras_tensor__", "config": {"shape": [null, 14, 14, 384], "dtype": "float32", "keras_history": ["add_10", 0, 0]}}], "kwargs": {}}]}, {"class_name": "LayerNormalization", "config": {"name": "convnext_small_stage_2_block_5_layernorm", "trainable": false, "dtype": {"module": "keras", "class_name": "DTypePolicy", "config": {"name": "float32"}, "registered_name": null}, "axis": [-1], "epsilon": 1e-06, "center": true, "scale": true, "rms_scaling": false, "beta_initializer": {"module": "keras.initializers", "class_name": "Zeros", "config": {}, "registered_name": null}, "gamma_initializer": {"module": "keras.initializers", "class_name": "Ones", "config": {}, "registered_name": null}, "beta_regularizer": null, "gamma_regularizer": null, "beta_constraint": null, "gamma_constraint": null}, "name": "convnext_small_stage_2_block_5_layernorm", "inbound_nodes": [{"args": [{"class_name": "__keras_tensor__", "config": {"shape": [null, 14, 14, 384], "dtype": "float32", "keras_history": ["convnext_small_stage_2_block_5_depthwise_conv", 0, 0]}}], "kwargs": {}}]}, {"class_name": "Dense", "config": {"name": "convnext_small_stage_2_block_5_pointwise_conv_1", "trainable": false, "dtype": {"module": "keras", "class_name": "DTypePolicy", "config": {"name": "float32"}, "registered_name": null}, "units": 1536, "activation": "linear", "use_bias": true, "kernel_initializer": {"module": "keras.initializers", "class_name": "GlorotUniform", "config": {"seed": null}, "registered_name": null}, "bias_initializer": {"module": "keras.initializers", "class_name": "Zeros", "config": {}, "registered_name": null}, "kernel_regularizer": null, "bias_regularizer": null, "kernel_constraint": null, "bias_constraint": null}, "name": "convnext_small_stage_2_block_5_pointwise_conv_1", "inbound_nodes": [{"args": [{"class_name": "__keras_tensor__", "config": {"shape": [null, 14, 14, 384], "dtype": "float32", "keras_history": ["convnext_small_stage_2_block_5_layernorm", 0, 0]}}], "kwargs": {}}]}, {"class_name": "Activation", "config": {"name": "convnext_small_stage_2_block_5_gelu", "trainable": false, "dtype": {"module": "keras", "class_name": "DTypePolicy", "config": {"name": "float32"}, "registered_name": null}, "activation": "gelu"}, "name": "convnext_small_stage_2_block_5_gelu", "inbound_nodes": [{"args": [{"class_name": "__keras_tensor__", "config": {"shape": [null, 14, 14, 1536], "dtype": "float32", "keras_history": ["convnext_small_stage_2_block_5_pointwise_conv_1", 0, 0]}}], "kwargs": {}}]}, {"class_name": "Dense", "config": {"name": "convnext_small_stage_2_block_5_pointwise_conv_2", "trainable": false, "dtype": {"module": "keras", "class_name": "DTypePolicy", "config": {"name": "float32"}, "registered_name": null}, "units": 384, "activation": "linear", "use_bias": true, "kernel_initializer": {"module": "keras.initializers", "class_name": "GlorotUniform", "config": {"seed": null}, "registered_name": null}, "bias_initializer": {"module": "keras.initializers", "class_name": "Zeros", "config": {}, "registered_name": null}, "kernel_regularizer": null, "bias_regularizer": null, "kernel_constraint": null, "bias_constraint": null}, "name": "convnext_small_stage_2_block_5_pointwise_conv_2", "inbound_nodes": [{"args": [{"class_name": "__keras_tensor__", "config": {"shape": [null, 14, 14, 1536], "dtype": "float32", "keras_history": ["convnext_small_stage_2_block_5_gelu", 0, 0]}}], "kwargs": {}}]}, {"class_name": "LayerScale", "config": {"name": "convnext_small_stage_2_block_5_layer_scale", "trainable": false, "dtype": {"module": "keras", "class_name": "DTypePolicy", "config": {"name": "float32"}, "registered_name": null}, "init_values": 1e-06, "projection_dim": 384}, "name": "convnext_small_stage_2_block_5_layer_scale", "inbound_nodes": [{"args": [{"class_name": "__keras_tensor__", "config": {"shape": [null, 14, 14, 384], "dtype": "float32", "keras_history": ["convnext_small_stage_2_block_5_pointwise_conv_2", 0, 0]}}], "kwargs": {}}]}, {"class_name": "Activation", "config": {"name": "convnext_small_stage_2_block_5_identity", "trainable": false, "dtype": {"module": "keras", "class_name": "DTypePolicy", "config": {"name": "float32"}, "registered_name": null}, "activation": "linear"}, "name": "convnext_small_stage_2_block_5_identity", "inbound_nodes": [{"args": [{"class_name": "__keras_tensor__", "config": {"shape": [null, 14, 14, 384], "dtype": "float32", "keras_history": ["convnext_small_stage_2_block_5_layer_scale", 0, 0]}}], "kwargs": {}}]}, {"class_name": "Add", "config": {"name": "add_11"}, "name": "add_11", "inbound_nodes": [{"args": [{"class_name": "__keras_tensor__", "config": {"shape": [null, 14, 14, 384], "dtype": "float32", "keras_history": ["add_10", 0, 0]}}, {"class_name": "__keras_tensor__", "config": {"shape": [null, 14, 14, 384], "dtype": "float32", "keras_history": ["convnext_small_stage_2_block_5_identity", 0, 0]}}], "kwargs": {}}]}, {"class_name": "Conv2D", "config": {"name": "convnext_small_stage_2_block_6_depthwise_conv", "trainable": false, "dtype": {"module": "keras", "class_name": "DTypePolicy", "config": {"name": "float32"}, "registered_name": null}, "filters": 384, "kernel_size": [7, 7], "strides": [1, 1], "padding": "same", "data_format": "channels_last", "dilation_rate": [1, 1], "groups": 384, "activation": "linear", "use_bias": true, "kernel_initializer": {"module": "keras.initializers", "class_name": "GlorotUniform", "config": {"seed": null}, "registered_name": null}, "bias_initializer": {"module": "keras.initializers", "class_name": "Zeros", "config": {}, "registered_name": null}, "kernel_regularizer": null, "bias_regularizer": null, "activity_regularizer": null, "kernel_constraint": null, "bias_constraint": null}, "name": "convnext_small_stage_2_block_6_depthwise_conv", "inbound_nodes": [{"args": [{"class_name": "__keras_tensor__", "config": {"shape": [null, 14, 14, 384], "dtype": "float32", "keras_history": ["add_11", 0, 0]}}], "kwargs": {}}]}, {"class_name": "LayerNormalization", "config": {"name": "convnext_small_stage_2_block_6_layernorm", "trainable": false, "dtype": {"module": "keras", "class_name": "DTypePolicy", "config": {"name": "float32"}, "registered_name": null}, "axis": [-1], "epsilon": 1e-06, "center": true, "scale": true, "rms_scaling": false, "beta_initializer": {"module": "keras.initializers", "class_name": "Zeros", "config": {}, "registered_name": null}, "gamma_initializer": {"module": "keras.initializers", "class_name": "Ones", "config": {}, "registered_name": null}, "beta_regularizer": null, "gamma_regularizer": null, "beta_constraint": null, "gamma_constraint": null}, "name": "convnext_small_stage_2_block_6_layernorm", "inbound_nodes": [{"args": [{"class_name": "__keras_tensor__", "config": {"shape": [null, 14, 14, 384], "dtype": "float32", "keras_history": ["convnext_small_stage_2_block_6_depthwise_conv", 0, 0]}}], "kwargs": {}}]}, {"class_name": "Dense", "config": {"name": "convnext_small_stage_2_block_6_pointwise_conv_1", "trainable": false, "dtype": {"module": "keras", "class_name": "DTypePolicy", "config": {"name": "float32"}, "registered_name": null}, "units": 1536, "activation": "linear", "use_bias": true, "kernel_initializer": {"module": "keras.initializers", "class_name": "GlorotUniform", "config": {"seed": null}, "registered_name": null}, "bias_initializer": {"module": "keras.initializers", "class_name": "Zeros", "config": {}, "registered_name": null}, "kernel_regularizer": null, "bias_regularizer": null, "kernel_constraint": null, "bias_constraint": null}, "name": "convnext_small_stage_2_block_6_pointwise_conv_1", "inbound_nodes": [{"args": [{"class_name": "__keras_tensor__", "config": {"shape": [null, 14, 14, 384], "dtype": "float32", "keras_history": ["convnext_small_stage_2_block_6_layernorm", 0, 0]}}], "kwargs": {}}]}, {"class_name": "Activation", "config": {"name": "convnext_small_stage_2_block_6_gelu", "trainable": false, "dtype": {"module": "keras", "class_name": "DTypePolicy", "config": {"name": "float32"}, "registered_name": null}, "activation": "gelu"}, "name": "convnext_small_stage_2_block_6_gelu", "inbound_nodes": [{"args": [{"class_name": "__keras_tensor__", "config": {"shape": [null, 14, 14, 1536], "dtype": "float32", "keras_history": ["convnext_small_stage_2_block_6_pointwise_conv_1", 0, 0]}}], "kwargs": {}}]}, {"class_name": "Dense", "config": {"name": "convnext_small_stage_2_block_6_pointwise_conv_2", "trainable": false, "dtype": {"module": "keras", "class_name": "DTypePolicy", "config": {"name": "float32"}, "registered_name": null}, "units": 384, "activation": "linear", "use_bias": true, "kernel_initializer": {"module": "keras.initializers", "class_name": "GlorotUniform", "config": {"seed": null}, "registered_name": null}, "bias_initializer": {"module": "keras.initializers", "class_name": "Zeros", "config": {}, "registered_name": null}, "kernel_regularizer": null, "bias_regularizer": null, "kernel_constraint": null, "bias_constraint": null}, "name": "convnext_small_stage_2_block_6_pointwise_conv_2", "inbound_nodes": [{"args": [{"class_name": "__keras_tensor__", "config": {"shape": [null, 14, 14, 1536], "dtype": "float32", "keras_history": ["convnext_small_stage_2_block_6_gelu", 0, 0]}}], "kwargs": {}}]}, {"class_name": "LayerScale", "config": {"name": "convnext_small_stage_2_block_6_layer_scale", "trainable": false, "dtype": {"module": "keras", "class_name": "DTypePolicy", "config": {"name": "float32"}, "registered_name": null}, "init_values": 1e-06, "projection_dim": 384}, "name": "convnext_small_stage_2_block_6_layer_scale", "inbound_nodes": [{"args": [{"class_name": "__keras_tensor__", "config": {"shape": [null, 14, 14, 384], "dtype": "float32", "keras_history": ["convnext_small_stage_2_block_6_pointwise_conv_2", 0, 0]}}], "kwargs": {}}]}, {"class_name": "Activation", "config": {"name": "convnext_small_stage_2_block_6_identity", "trainable": false, "dtype": {"module": "keras", "class_name": "DTypePolicy", "config": {"name": "float32"}, "registered_name": null}, "activation": "linear"}, "name": "convnext_small_stage_2_block_6_identity", "inbound_nodes": [{"args": [{"class_name": "__keras_tensor__", "config": {"shape": [null, 14, 14, 384], "dtype": "float32", "keras_history": ["convnext_small_stage_2_block_6_layer_scale", 0, 0]}}], "kwargs": {}}]}, {"class_name": "Add", "config": {"name": "add_12"}, "name": "add_12", "inbound_nodes": [{"args": [{"class_name": "__keras_tensor__", "config": {"shape": [null, 14, 14, 384], "dtype": "float32", "keras_history": ["add_11", 0, 0]}}, {"class_name": "__keras_tensor__", "config": {"shape": [null, 14, 14, 384], "dtype": "float32", "keras_history": ["convnext_small_stage_2_block_6_identity", 0, 0]}}], "kwargs": {}}]}, {"class_name": "Conv2D", "config": {"name": "convnext_small_stage_2_block_7_depthwise_conv", "trainable": false, "dtype": {"module": "keras", "class_name": "DTypePolicy", "config": {"name": "float32"}, "registered_name": null}, "filters": 384, "kernel_size": [7, 7], "strides": [1, 1], "padding": "same", "data_format": "channels_last", "dilation_rate": [1, 1], "groups": 384, "activation": "linear", "use_bias": true, "kernel_initializer": {"module": "keras.initializers", "class_name": "GlorotUniform", "config": {"seed": null}, "registered_name": null}, "bias_initializer": {"module": "keras.initializers", "class_name": "Zeros", "config": {}, "registered_name": null}, "kernel_regularizer": null, "bias_regularizer": null, "activity_regularizer": null, "kernel_constraint": null, "bias_constraint": null}, "name": "convnext_small_stage_2_block_7_depthwise_conv", "inbound_nodes": [{"args": [{"class_name": "__keras_tensor__", "config": {"shape": [null, 14, 14, 384], "dtype": "float32", "keras_history": ["add_12", 0, 0]}}], "kwargs": {}}]}, {"class_name": "LayerNormalization", "config": {"name": "convnext_small_stage_2_block_7_layernorm", "trainable": false, "dtype": {"module": "keras", "class_name": "DTypePolicy", "config": {"name": "float32"}, "registered_name": null}, "axis": [-1], "epsilon": 1e-06, "center": true, "scale": true, "rms_scaling": false, "beta_initializer": {"module": "keras.initializers", "class_name": "Zeros", "config": {}, "registered_name": null}, "gamma_initializer": {"module": "keras.initializers", "class_name": "Ones", "config": {}, "registered_name": null}, "beta_regularizer": null, "gamma_regularizer": null, "beta_constraint": null, "gamma_constraint": null}, "name": "convnext_small_stage_2_block_7_layernorm", "inbound_nodes": [{"args": [{"class_name": "__keras_tensor__", "config": {"shape": [null, 14, 14, 384], "dtype": "float32", "keras_history": ["convnext_small_stage_2_block_7_depthwise_conv", 0, 0]}}], "kwargs": {}}]}, {"class_name": "Dense", "config": {"name": "convnext_small_stage_2_block_7_pointwise_conv_1", "trainable": false, "dtype": {"module": "keras", "class_name": "DTypePolicy", "config": {"name": "float32"}, "registered_name": null}, "units": 1536, "activation": "linear", "use_bias": true, "kernel_initializer": {"module": "keras.initializers", "class_name": "GlorotUniform", "config": {"seed": null}, "registered_name": null}, "bias_initializer": {"module": "keras.initializers", "class_name": "Zeros", "config": {}, "registered_name": null}, "kernel_regularizer": null, "bias_regularizer": null, "kernel_constraint": null, "bias_constraint": null}, "name": "convnext_small_stage_2_block_7_pointwise_conv_1", "inbound_nodes": [{"args": [{"class_name": "__keras_tensor__", "config": {"shape": [null, 14, 14, 384], "dtype": "float32", "keras_history": ["convnext_small_stage_2_block_7_layernorm", 0, 0]}}], "kwargs": {}}]}, {"class_name": "Activation", "config": {"name": "convnext_small_stage_2_block_7_gelu", "trainable": false, "dtype": {"module": "keras", "class_name": "DTypePolicy", "config": {"name": "float32"}, "registered_name": null}, "activation": "gelu"}, "name": "convnext_small_stage_2_block_7_gelu", "inbound_nodes": [{"args": [{"class_name": "__keras_tensor__", "config": {"shape": [null, 14, 14, 1536], "dtype": "float32", "keras_history": ["convnext_small_stage_2_block_7_pointwise_conv_1", 0, 0]}}], "kwargs": {}}]}, {"class_name": "Dense", "config": {"name": "convnext_small_stage_2_block_7_pointwise_conv_2", "trainable": false, "dtype": {"module": "keras", "class_name": "DTypePolicy", "config": {"name": "float32"}, "registered_name": null}, "units": 384, "activation": "linear", "use_bias": true, "kernel_initializer": {"module": "keras.initializers", "class_name": "GlorotUniform", "config": {"seed": null}, "registered_name": null}, "bias_initializer": {"module": "keras.initializers", "class_name": "Zeros", "config": {}, "registered_name": null}, "kernel_regularizer": null, "bias_regularizer": null, "kernel_constraint": null, "bias_constraint": null}, "name": "convnext_small_stage_2_block_7_pointwise_conv_2", "inbound_nodes": [{"args": [{"class_name": "__keras_tensor__", "config": {"shape": [null, 14, 14, 1536], "dtype": "float32", "keras_history": ["convnext_small_stage_2_block_7_gelu", 0, 0]}}], "kwargs": {}}]}, {"class_name": "LayerScale", "config": {"name": "convnext_small_stage_2_block_7_layer_scale", "trainable": false, "dtype": {"module": "keras", "class_name": "DTypePolicy", "config": {"name": "float32"}, "registered_name": null}, "init_values": 1e-06, "projection_dim": 384}, "name": "convnext_small_stage_2_block_7_layer_scale", "inbound_nodes": [{"args": [{"class_name": "__keras_tensor__", "config": {"shape": [null, 14, 14, 384], "dtype": "float32", "keras_history": ["convnext_small_stage_2_block_7_pointwise_conv_2", 0, 0]}}], "kwargs": {}}]}, {"class_name": "Activation", "config": {"name": "convnext_small_stage_2_block_7_identity", "trainable": false, "dtype": {"module": "keras", "class_name": "DTypePolicy", "config": {"name": "float32"}, "registered_name": null}, "activation": "linear"}, "name": "convnext_small_stage_2_block_7_identity", "inbound_nodes": [{"args": [{"class_name": "__keras_tensor__", "config": {"shape": [null, 14, 14, 384], "dtype": "float32", "keras_history": ["convnext_small_stage_2_block_7_layer_scale", 0, 0]}}], "kwargs": {}}]}, {"class_name": "Add", "config": {"name": "add_13"}, "name": "add_13", "inbound_nodes": [{"args": [{"class_name": "__keras_tensor__", "config": {"shape": [null, 14, 14, 384], "dtype": "float32", "keras_history": ["add_12", 0, 0]}}, {"class_name": "__keras_tensor__", "config": {"shape": [null, 14, 14, 384], "dtype": "float32", "keras_history": ["convnext_small_stage_2_block_7_identity", 0, 0]}}], "kwargs": {}}]}, {"class_name": "Conv2D", "config": {"name": "convnext_small_stage_2_block_8_depthwise_conv", "trainable": false, "dtype": {"module": "keras", "class_name": "DTypePolicy", "config": {"name": "float32"}, "registered_name": null}, "filters": 384, "kernel_size": [7, 7], "strides": [1, 1], "padding": "same", "data_format": "channels_last", "dilation_rate": [1, 1], "groups": 384, "activation": "linear", "use_bias": true, "kernel_initializer": {"module": "keras.initializers", "class_name": "GlorotUniform", "config": {"seed": null}, "registered_name": null}, "bias_initializer": {"module": "keras.initializers", "class_name": "Zeros", "config": {}, "registered_name": null}, "kernel_regularizer": null, "bias_regularizer": null, "activity_regularizer": null, "kernel_constraint": null, "bias_constraint": null}, "name": "convnext_small_stage_2_block_8_depthwise_conv", "inbound_nodes": [{"args": [{"class_name": "__keras_tensor__", "config": {"shape": [null, 14, 14, 384], "dtype": "float32", "keras_history": ["add_13", 0, 0]}}], "kwargs": {}}]}, {"class_name": "LayerNormalization", "config": {"name": "convnext_small_stage_2_block_8_layernorm", "trainable": false, "dtype": {"module": "keras", "class_name": "DTypePolicy", "config": {"name": "float32"}, "registered_name": null}, "axis": [-1], "epsilon": 1e-06, "center": true, "scale": true, "rms_scaling": false, "beta_initializer": {"module": "keras.initializers", "class_name": "Zeros", "config": {}, "registered_name": null}, "gamma_initializer": {"module": "keras.initializers", "class_name": "Ones", "config": {}, "registered_name": null}, "beta_regularizer": null, "gamma_regularizer": null, "beta_constraint": null, "gamma_constraint": null}, "name": "convnext_small_stage_2_block_8_layernorm", "inbound_nodes": [{"args": [{"class_name": "__keras_tensor__", "config": {"shape": [null, 14, 14, 384], "dtype": "float32", "keras_history": ["convnext_small_stage_2_block_8_depthwise_conv", 0, 0]}}], "kwargs": {}}]}, {"class_name": "Dense", "config": {"name": "convnext_small_stage_2_block_8_pointwise_conv_1", "trainable": false, "dtype": {"module": "keras", "class_name": "DTypePolicy", "config": {"name": "float32"}, "registered_name": null}, "units": 1536, "activation": "linear", "use_bias": true, "kernel_initializer": {"module": "keras.initializers", "class_name": "GlorotUniform", "config": {"seed": null}, "registered_name": null}, "bias_initializer": {"module": "keras.initializers", "class_name": "Zeros", "config": {}, "registered_name": null}, "kernel_regularizer": null, "bias_regularizer": null, "kernel_constraint": null, "bias_constraint": null}, "name": "convnext_small_stage_2_block_8_pointwise_conv_1", "inbound_nodes": [{"args": [{"class_name": "__keras_tensor__", "config": {"shape": [null, 14, 14, 384], "dtype": "float32", "keras_history": ["convnext_small_stage_2_block_8_layernorm", 0, 0]}}], "kwargs": {}}]}, {"class_name": "Activation", "config": {"name": "convnext_small_stage_2_block_8_gelu", "trainable": false, "dtype": {"module": "keras", "class_name": "DTypePolicy", "config": {"name": "float32"}, "registered_name": null}, "activation": "gelu"}, "name": "convnext_small_stage_2_block_8_gelu", "inbound_nodes": [{"args": [{"class_name": "__keras_tensor__", "config": {"shape": [null, 14, 14, 1536], "dtype": "float32", "keras_history": ["convnext_small_stage_2_block_8_pointwise_conv_1", 0, 0]}}], "kwargs": {}}]}, {"class_name": "Dense", "config": {"name": "convnext_small_stage_2_block_8_pointwise_conv_2", "trainable": false, "dtype": {"module": "keras", "class_name": "DTypePolicy", "config": {"name": "float32"}, "registered_name": null}, "units": 384, "activation": "linear", "use_bias": true, "kernel_initializer": {"module": "keras.initializers", "class_name": "GlorotUniform", "config": {"seed": null}, "registered_name": null}, "bias_initializer": {"module": "keras.initializers", "class_name": "Zeros", "config": {}, "registered_name": null}, "kernel_regularizer": null, "bias_regularizer": null, "kernel_constraint": null, "bias_constraint": null}, "name": "convnext_small_stage_2_block_8_pointwise_conv_2", "inbound_nodes": [{"args": [{"class_name": "__keras_tensor__", "config": {"shape": [null, 14, 14, 1536], "dtype": "float32", "keras_history": ["convnext_small_stage_2_block_8_gelu", 0, 0]}}], "kwargs": {}}]}, {"class_name": "LayerScale", "config": {"name": "convnext_small_stage_2_block_8_layer_scale", "trainable": false, "dtype": {"module": "keras", "class_name": "DTypePolicy", "config": {"name": "float32"}, "registered_name": null}, "init_values": 1e-06, "projection_dim": 384}, "name": "convnext_small_stage_2_block_8_layer_scale", "inbound_nodes": [{"args": [{"class_name": "__keras_tensor__", "config": {"shape": [null, 14, 14, 384], "dtype": "float32", "keras_history": ["convnext_small_stage_2_block_8_pointwise_conv_2", 0, 0]}}], "kwargs": {}}]}, {"class_name": "Activation", "config": {"name": "convnext_small_stage_2_block_8_identity", "trainable": false, "dtype": {"module": "keras", "class_name": "DTypePolicy", "config": {"name": "float32"}, "registered_name": null}, "activation": "linear"}, "name": "convnext_small_stage_2_block_8_identity", "inbound_nodes": [{"args": [{"class_name": "__keras_tensor__", "config": {"shape": [null, 14, 14, 384], "dtype": "float32", "keras_history": ["convnext_small_stage_2_block_8_layer_scale", 0, 0]}}], "kwargs": {}}]}, {"class_name": "Add", "config": {"name": "add_14"}, "name": "add_14", "inbound_nodes": [{"args": [{"class_name": "__keras_tensor__", "config": {"shape": [null, 14, 14, 384], "dtype": "float32", "keras_history": ["add_13", 0, 0]}}, {"class_name": "__keras_tensor__", "config": {"shape": [null, 14, 14, 384], "dtype": "float32", "keras_history": ["convnext_small_stage_2_block_8_identity", 0, 0]}}], "kwargs": {}}]}, {"class_name": "Conv2D", "config": {"name": "convnext_small_stage_2_block_9_depthwise_conv", "trainable": false, "dtype": {"module": "keras", "class_name": "DTypePolicy", "config": {"name": "float32"}, "registered_name": null}, "filters": 384, "kernel_size": [7, 7], "strides": [1, 1], "padding": "same", "data_format": "channels_last", "dilation_rate": [1, 1], "groups": 384, "activation": "linear", "use_bias": true, "kernel_initializer": {"module": "keras.initializers", "class_name": "GlorotUniform", "config": {"seed": null}, "registered_name": null}, "bias_initializer": {"module": "keras.initializers", "class_name": "Zeros", "config": {}, "registered_name": null}, "kernel_regularizer": null, "bias_regularizer": null, "activity_regularizer": null, "kernel_constraint": null, "bias_constraint": null}, "name": "convnext_small_stage_2_block_9_depthwise_conv", "inbound_nodes": [{"args": [{"class_name": "__keras_tensor__", "config": {"shape": [null, 14, 14, 384], "dtype": "float32", "keras_history": ["add_14", 0, 0]}}], "kwargs": {}}]}, {"class_name": "LayerNormalization", "config": {"name": "convnext_small_stage_2_block_9_layernorm", "trainable": false, "dtype": {"module": "keras", "class_name": "DTypePolicy", "config": {"name": "float32"}, "registered_name": null}, "axis": [-1], "epsilon": 1e-06, "center": true, "scale": true, "rms_scaling": false, "beta_initializer": {"module": "keras.initializers", "class_name": "Zeros", "config": {}, "registered_name": null}, "gamma_initializer": {"module": "keras.initializers", "class_name": "Ones", "config": {}, "registered_name": null}, "beta_regularizer": null, "gamma_regularizer": null, "beta_constraint": null, "gamma_constraint": null}, "name": "convnext_small_stage_2_block_9_layernorm", "inbound_nodes": [{"args": [{"class_name": "__keras_tensor__", "config": {"shape": [null, 14, 14, 384], "dtype": "float32", "keras_history": ["convnext_small_stage_2_block_9_depthwise_conv", 0, 0]}}], "kwargs": {}}]}, {"class_name": "Dense", "config": {"name": "convnext_small_stage_2_block_9_pointwise_conv_1", "trainable": false, "dtype": {"module": "keras", "class_name": "DTypePolicy", "config": {"name": "float32"}, "registered_name": null}, "units": 1536, "activation": "linear", "use_bias": true, "kernel_initializer": {"module": "keras.initializers", "class_name": "GlorotUniform", "config": {"seed": null}, "registered_name": null}, "bias_initializer": {"module": "keras.initializers", "class_name": "Zeros", "config": {}, "registered_name": null}, "kernel_regularizer": null, "bias_regularizer": null, "kernel_constraint": null, "bias_constraint": null}, "name": "convnext_small_stage_2_block_9_pointwise_conv_1", "inbound_nodes": [{"args": [{"class_name": "__keras_tensor__", "config": {"shape": [null, 14, 14, 384], "dtype": "float32", "keras_history": ["convnext_small_stage_2_block_9_layernorm", 0, 0]}}], "kwargs": {}}]}, {"class_name": "Activation", "config": {"name": "convnext_small_stage_2_block_9_gelu", "trainable": false, "dtype": {"module": "keras", "class_name": "DTypePolicy", "config": {"name": "float32"}, "registered_name": null}, "activation": "gelu"}, "name": "convnext_small_stage_2_block_9_gelu", "inbound_nodes": [{"args": [{"class_name": "__keras_tensor__", "config": {"shape": [null, 14, 14, 1536], "dtype": "float32", "keras_history": ["convnext_small_stage_2_block_9_pointwise_conv_1", 0, 0]}}], "kwargs": {}}]}, {"class_name": "Dense", "config": {"name": "convnext_small_stage_2_block_9_pointwise_conv_2", "trainable": false, "dtype": {"module": "keras", "class_name": "DTypePolicy", "config": {"name": "float32"}, "registered_name": null}, "units": 384, "activation": "linear", "use_bias": true, "kernel_initializer": {"module": "keras.initializers", "class_name": "GlorotUniform", "config": {"seed": null}, "registered_name": null}, "bias_initializer": {"module": "keras.initializers", "class_name": "Zeros", "config": {}, "registered_name": null}, "kernel_regularizer": null, "bias_regularizer": null, "kernel_constraint": null, "bias_constraint": null}, "name": "convnext_small_stage_2_block_9_pointwise_conv_2", "inbound_nodes": [{"args": [{"class_name": "__keras_tensor__", "config": {"shape": [null, 14, 14, 1536], "dtype": "float32", "keras_history": ["convnext_small_stage_2_block_9_gelu", 0, 0]}}], "kwargs": {}}]}, {"class_name": "LayerScale", "config": {"name": "convnext_small_stage_2_block_9_layer_scale", "trainable": false, "dtype": {"module": "keras", "class_name": "DTypePolicy", "config": {"name": "float32"}, "registered_name": null}, "init_values": 1e-06, "projection_dim": 384}, "name": "convnext_small_stage_2_block_9_layer_scale", "inbound_nodes": [{"args": [{"class_name": "__keras_tensor__", "config": {"shape": [null, 14, 14, 384], "dtype": "float32", "keras_history": ["convnext_small_stage_2_block_9_pointwise_conv_2", 0, 0]}}], "kwargs": {}}]}, {"class_name": "Activation", "config": {"name": "convnext_small_stage_2_block_9_identity", "trainable": false, "dtype": {"module": "keras", "class_name": "DTypePolicy", "config": {"name": "float32"}, "registered_name": null}, "activation": "linear"}, "name": "convnext_small_stage_2_block_9_identity", "inbound_nodes": [{"args": [{"class_name": "__keras_tensor__", "config": {"shape": [null, 14, 14, 384], "dtype": "float32", "keras_history": ["convnext_small_stage_2_block_9_layer_scale", 0, 0]}}], "kwargs": {}}]}, {"class_name": "Add", "config": {"name": "add_15"}, "name": "add_15", "inbound_nodes": [{"args": [{"class_name": "__keras_tensor__", "config": {"shape": [null, 14, 14, 384], "dtype": "float32", "keras_history": ["add_14", 0, 0]}}, {"class_name": "__keras_tensor__", "config": {"shape": [null, 14, 14, 384], "dtype": "float32", "keras_history": ["convnext_small_stage_2_block_9_identity", 0, 0]}}], "kwargs": {}}]}, {"class_name": "Conv2D", "config": {"name": "convnext_small_stage_2_block_10_depthwise_conv", "trainable": false, "dtype": {"module": "keras", "class_name": "DTypePolicy", "config": {"name": "float32"}, "registered_name": null}, "filters": 384, "kernel_size": [7, 7], "strides": [1, 1], "padding": "same", "data_format": "channels_last", "dilation_rate": [1, 1], "groups": 384, "activation": "linear", "use_bias": true, "kernel_initializer": {"module": "keras.initializers", "class_name": "GlorotUniform", "config": {"seed": null}, "registered_name": null}, "bias_initializer": {"module": "keras.initializers", "class_name": "Zeros", "config": {}, "registered_name": null}, "kernel_regularizer": null, "bias_regularizer": null, "activity_regularizer": null, "kernel_constraint": null, "bias_constraint": null}, "name": "convnext_small_stage_2_block_10_depthwise_conv", "inbound_nodes": [{"args": [{"class_name": "__keras_tensor__", "config": {"shape": [null, 14, 14, 384], "dtype": "float32", "keras_history": ["add_15", 0, 0]}}], "kwargs": {}}]}, {"class_name": "LayerNormalization", "config": {"name": "convnext_small_stage_2_block_10_layernorm", "trainable": false, "dtype": {"module": "keras", "class_name": "DTypePolicy", "config": {"name": "float32"}, "registered_name": null}, "axis": [-1], "epsilon": 1e-06, "center": true, "scale": true, "rms_scaling": false, "beta_initializer": {"module": "keras.initializers", "class_name": "Zeros", "config": {}, "registered_name": null}, "gamma_initializer": {"module": "keras.initializers", "class_name": "Ones", "config": {}, "registered_name": null}, "beta_regularizer": null, "gamma_regularizer": null, "beta_constraint": null, "gamma_constraint": null}, "name": "convnext_small_stage_2_block_10_layernorm", "inbound_nodes": [{"args": [{"class_name": "__keras_tensor__", "config": {"shape": [null, 14, 14, 384], "dtype": "float32", "keras_history": ["convnext_small_stage_2_block_10_depthwise_conv", 0, 0]}}], "kwargs": {}}]}, {"class_name": "Dense", "config": {"name": "convnext_small_stage_2_block_10_pointwise_conv_1", "trainable": false, "dtype": {"module": "keras", "class_name": "DTypePolicy", "config": {"name": "float32"}, "registered_name": null}, "units": 1536, "activation": "linear", "use_bias": true, "kernel_initializer": {"module": "keras.initializers", "class_name": "GlorotUniform", "config": {"seed": null}, "registered_name": null}, "bias_initializer": {"module": "keras.initializers", "class_name": "Zeros", "config": {}, "registered_name": null}, "kernel_regularizer": null, "bias_regularizer": null, "kernel_constraint": null, "bias_constraint": null}, "name": "convnext_small_stage_2_block_10_pointwise_conv_1", "inbound_nodes": [{"args": [{"class_name": "__keras_tensor__", "config": {"shape": [null, 14, 14, 384], "dtype": "float32", "keras_history": ["convnext_small_stage_2_block_10_layernorm", 0, 0]}}], "kwargs": {}}]}, {"class_name": "Activation", "config": {"name": "convnext_small_stage_2_block_10_gelu", "trainable": false, "dtype": {"module": "keras", "class_name": "DTypePolicy", "config": {"name": "float32"}, "registered_name": null}, "activation": "gelu"}, "name": "convnext_small_stage_2_block_10_gelu", "inbound_nodes": [{"args": [{"class_name": "__keras_tensor__", "config": {"shape": [null, 14, 14, 1536], "dtype": "float32", "keras_history": ["convnext_small_stage_2_block_10_pointwise_conv_1", 0, 0]}}], "kwargs": {}}]}, {"class_name": "Dense", "config": {"name": "convnext_small_stage_2_block_10_pointwise_conv_2", "trainable": false, "dtype": {"module": "keras", "class_name": "DTypePolicy", "config": {"name": "float32"}, "registered_name": null}, "units": 384, "activation": "linear", "use_bias": true, "kernel_initializer": {"module": "keras.initializers", "class_name": "GlorotUniform", "config": {"seed": null}, "registered_name": null}, "bias_initializer": {"module": "keras.initializers", "class_name": "Zeros", "config": {}, "registered_name": null}, "kernel_regularizer": null, "bias_regularizer": null, "kernel_constraint": null, "bias_constraint": null}, "name": "convnext_small_stage_2_block_10_pointwise_conv_2", "inbound_nodes": [{"args": [{"class_name": "__keras_tensor__", "config": {"shape": [null, 14, 14, 1536], "dtype": "float32", "keras_history": ["convnext_small_stage_2_block_10_gelu", 0, 0]}}], "kwargs": {}}]}, {"class_name": "LayerScale", "config": {"name": "convnext_small_stage_2_block_10_layer_scale", "trainable": false, "dtype": {"module": "keras", "class_name": "DTypePolicy", "config": {"name": "float32"}, "registered_name": null}, "init_values": 1e-06, "projection_dim": 384}, "name": "convnext_small_stage_2_block_10_layer_scale", "inbound_nodes": [{"args": [{"class_name": "__keras_tensor__", "config": {"shape": [null, 14, 14, 384], "dtype": "float32", "keras_history": ["convnext_small_stage_2_block_10_pointwise_conv_2", 0, 0]}}], "kwargs": {}}]}, {"class_name": "Activation", "config": {"name": "convnext_small_stage_2_block_10_identity", "trainable": false, "dtype": {"module": "keras", "class_name": "DTypePolicy", "config": {"name": "float32"}, "registered_name": null}, "activation": "linear"}, "name": "convnext_small_stage_2_block_10_identity", "inbound_nodes": [{"args": [{"class_name": "__keras_tensor__", "config": {"shape": [null, 14, 14, 384], "dtype": "float32", "keras_history": ["convnext_small_stage_2_block_10_layer_scale", 0, 0]}}], "kwargs": {}}]}, {"class_name": "Add", "config": {"name": "add_16"}, "name": "add_16", "inbound_nodes": [{"args": [{"class_name": "__keras_tensor__", "config": {"shape": [null, 14, 14, 384], "dtype": "float32", "keras_history": ["add_15", 0, 0]}}, {"class_name": "__keras_tensor__", "config": {"shape": [null, 14, 14, 384], "dtype": "float32", "keras_history": ["convnext_small_stage_2_block_10_identity", 0, 0]}}], "kwargs": {}}]}, {"class_name": "Conv2D", "config": {"name": "convnext_small_stage_2_block_11_depthwise_conv", "trainable": false, "dtype": {"module": "keras", "class_name": "DTypePolicy", "config": {"name": "float32"}, "registered_name": null}, "filters": 384, "kernel_size": [7, 7], "strides": [1, 1], "padding": "same", "data_format": "channels_last", "dilation_rate": [1, 1], "groups": 384, "activation": "linear", "use_bias": true, "kernel_initializer": {"module": "keras.initializers", "class_name": "GlorotUniform", "config": {"seed": null}, "registered_name": null}, "bias_initializer": {"module": "keras.initializers", "class_name": "Zeros", "config": {}, "registered_name": null}, "kernel_regularizer": null, "bias_regularizer": null, "activity_regularizer": null, "kernel_constraint": null, "bias_constraint": null}, "name": "convnext_small_stage_2_block_11_depthwise_conv", "inbound_nodes": [{"args": [{"class_name": "__keras_tensor__", "config": {"shape": [null, 14, 14, 384], "dtype": "float32", "keras_history": ["add_16", 0, 0]}}], "kwargs": {}}]}, {"class_name": "LayerNormalization", "config": {"name": "convnext_small_stage_2_block_11_layernorm", "trainable": false, "dtype": {"module": "keras", "class_name": "DTypePolicy", "config": {"name": "float32"}, "registered_name": null}, "axis": [-1], "epsilon": 1e-06, "center": true, "scale": true, "rms_scaling": false, "beta_initializer": {"module": "keras.initializers", "class_name": "Zeros", "config": {}, "registered_name": null}, "gamma_initializer": {"module": "keras.initializers", "class_name": "Ones", "config": {}, "registered_name": null}, "beta_regularizer": null, "gamma_regularizer": null, "beta_constraint": null, "gamma_constraint": null}, "name": "convnext_small_stage_2_block_11_layernorm", "inbound_nodes": [{"args": [{"class_name": "__keras_tensor__", "config": {"shape": [null, 14, 14, 384], "dtype": "float32", "keras_history": ["convnext_small_stage_2_block_11_depthwise_conv", 0, 0]}}], "kwargs": {}}]}, {"class_name": "Dense", "config": {"name": "convnext_small_stage_2_block_11_pointwise_conv_1", "trainable": false, "dtype": {"module": "keras", "class_name": "DTypePolicy", "config": {"name": "float32"}, "registered_name": null}, "units": 1536, "activation": "linear", "use_bias": true, "kernel_initializer": {"module": "keras.initializers", "class_name": "GlorotUniform", "config": {"seed": null}, "registered_name": null}, "bias_initializer": {"module": "keras.initializers", "class_name": "Zeros", "config": {}, "registered_name": null}, "kernel_regularizer": null, "bias_regularizer": null, "kernel_constraint": null, "bias_constraint": null}, "name": "convnext_small_stage_2_block_11_pointwise_conv_1", "inbound_nodes": [{"args": [{"class_name": "__keras_tensor__", "config": {"shape": [null, 14, 14, 384], "dtype": "float32", "keras_history": ["convnext_small_stage_2_block_11_layernorm", 0, 0]}}], "kwargs": {}}]}, {"class_name": "Activation", "config": {"name": "convnext_small_stage_2_block_11_gelu", "trainable": false, "dtype": {"module": "keras", "class_name": "DTypePolicy", "config": {"name": "float32"}, "registered_name": null}, "activation": "gelu"}, "name": "convnext_small_stage_2_block_11_gelu", "inbound_nodes": [{"args": [{"class_name": "__keras_tensor__", "config": {"shape": [null, 14, 14, 1536], "dtype": "float32", "keras_history": ["convnext_small_stage_2_block_11_pointwise_conv_1", 0, 0]}}], "kwargs": {}}]}, {"class_name": "Dense", "config": {"name": "convnext_small_stage_2_block_11_pointwise_conv_2", "trainable": false, "dtype": {"module": "keras", "class_name": "DTypePolicy", "config": {"name": "float32"}, "registered_name": null}, "units": 384, "activation": "linear", "use_bias": true, "kernel_initializer": {"module": "keras.initializers", "class_name": "GlorotUniform", "config": {"seed": null}, "registered_name": null}, "bias_initializer": {"module": "keras.initializers", "class_name": "Zeros", "config": {}, "registered_name": null}, "kernel_regularizer": null, "bias_regularizer": null, "kernel_constraint": null, "bias_constraint": null}, "name": "convnext_small_stage_2_block_11_pointwise_conv_2", "inbound_nodes": [{"args": [{"class_name": "__keras_tensor__", "config": {"shape": [null, 14, 14, 1536], "dtype": "float32", "keras_history": ["convnext_small_stage_2_block_11_gelu", 0, 0]}}], "kwargs": {}}]}, {"class_name": "LayerScale", "config": {"name": "convnext_small_stage_2_block_11_layer_scale", "trainable": false, "dtype": {"module": "keras", "class_name": "DTypePolicy", "config": {"name": "float32"}, "registered_name": null}, "init_values": 1e-06, "projection_dim": 384}, "name": "convnext_small_stage_2_block_11_layer_scale", "inbound_nodes": [{"args": [{"class_name": "__keras_tensor__", "config": {"shape": [null, 14, 14, 384], "dtype": "float32", "keras_history": ["convnext_small_stage_2_block_11_pointwise_conv_2", 0, 0]}}], "kwargs": {}}]}, {"class_name": "Activation", "config": {"name": "convnext_small_stage_2_block_11_identity", "trainable": false, "dtype": {"module": "keras", "class_name": "DTypePolicy", "config": {"name": "float32"}, "registered_name": null}, "activation": "linear"}, "name": "convnext_small_stage_2_block_11_identity", "inbound_nodes": [{"args": [{"class_name": "__keras_tensor__", "config": {"shape": [null, 14, 14, 384], "dtype": "float32", "keras_history": ["convnext_small_stage_2_block_11_layer_scale", 0, 0]}}], "kwargs": {}}]}, {"class_name": "Add", "config": {"name": "add_17"}, "name": "add_17", "inbound_nodes": [{"args": [{"class_name": "__keras_tensor__", "config": {"shape": [null, 14, 14, 384], "dtype": "float32", "keras_history": ["add_16", 0, 0]}}, {"class_name": "__keras_tensor__", "config": {"shape": [null, 14, 14, 384], "dtype": "float32", "keras_history": ["convnext_small_stage_2_block_11_identity", 0, 0]}}], "kwargs": {}}]}, {"class_name": "Conv2D", "config": {"name": "convnext_small_stage_2_block_12_depthwise_conv", "trainable": false, "dtype": {"module": "keras", "class_name": "DTypePolicy", "config": {"name": "float32"}, "registered_name": null}, "filters": 384, "kernel_size": [7, 7], "strides": [1, 1], "padding": "same", "data_format": "channels_last", "dilation_rate": [1, 1], "groups": 384, "activation": "linear", "use_bias": true, "kernel_initializer": {"module": "keras.initializers", "class_name": "GlorotUniform", "config": {"seed": null}, "registered_name": null}, "bias_initializer": {"module": "keras.initializers", "class_name": "Zeros", "config": {}, "registered_name": null}, "kernel_regularizer": null, "bias_regularizer": null, "activity_regularizer": null, "kernel_constraint": null, "bias_constraint": null}, "name": "convnext_small_stage_2_block_12_depthwise_conv", "inbound_nodes": [{"args": [{"class_name": "__keras_tensor__", "config": {"shape": [null, 14, 14, 384], "dtype": "float32", "keras_history": ["add_17", 0, 0]}}], "kwargs": {}}]}, {"class_name": "LayerNormalization", "config": {"name": "convnext_small_stage_2_block_12_layernorm", "trainable": false, "dtype": {"module": "keras", "class_name": "DTypePolicy", "config": {"name": "float32"}, "registered_name": null}, "axis": [-1], "epsilon": 1e-06, "center": true, "scale": true, "rms_scaling": false, "beta_initializer": {"module": "keras.initializers", "class_name": "Zeros", "config": {}, "registered_name": null}, "gamma_initializer": {"module": "keras.initializers", "class_name": "Ones", "config": {}, "registered_name": null}, "beta_regularizer": null, "gamma_regularizer": null, "beta_constraint": null, "gamma_constraint": null}, "name": "convnext_small_stage_2_block_12_layernorm", "inbound_nodes": [{"args": [{"class_name": "__keras_tensor__", "config": {"shape": [null, 14, 14, 384], "dtype": "float32", "keras_history": ["convnext_small_stage_2_block_12_depthwise_conv", 0, 0]}}], "kwargs": {}}]}, {"class_name": "Dense", "config": {"name": "convnext_small_stage_2_block_12_pointwise_conv_1", "trainable": false, "dtype": {"module": "keras", "class_name": "DTypePolicy", "config": {"name": "float32"}, "registered_name": null}, "units": 1536, "activation": "linear", "use_bias": true, "kernel_initializer": {"module": "keras.initializers", "class_name": "GlorotUniform", "config": {"seed": null}, "registered_name": null}, "bias_initializer": {"module": "keras.initializers", "class_name": "Zeros", "config": {}, "registered_name": null}, "kernel_regularizer": null, "bias_regularizer": null, "kernel_constraint": null, "bias_constraint": null}, "name": "convnext_small_stage_2_block_12_pointwise_conv_1", "inbound_nodes": [{"args": [{"class_name": "__keras_tensor__", "config": {"shape": [null, 14, 14, 384], "dtype": "float32", "keras_history": ["convnext_small_stage_2_block_12_layernorm", 0, 0]}}], "kwargs": {}}]}, {"class_name": "Activation", "config": {"name": "convnext_small_stage_2_block_12_gelu", "trainable": false, "dtype": {"module": "keras", "class_name": "DTypePolicy", "config": {"name": "float32"}, "registered_name": null}, "activation": "gelu"}, "name": "convnext_small_stage_2_block_12_gelu", "inbound_nodes": [{"args": [{"class_name": "__keras_tensor__", "config": {"shape": [null, 14, 14, 1536], "dtype": "float32", "keras_history": ["convnext_small_stage_2_block_12_pointwise_conv_1", 0, 0]}}], "kwargs": {}}]}, {"class_name": "Dense", "config": {"name": "convnext_small_stage_2_block_12_pointwise_conv_2", "trainable": false, "dtype": {"module": "keras", "class_name": "DTypePolicy", "config": {"name": "float32"}, "registered_name": null}, "units": 384, "activation": "linear", "use_bias": true, "kernel_initializer": {"module": "keras.initializers", "class_name": "GlorotUniform", "config": {"seed": null}, "registered_name": null}, "bias_initializer": {"module": "keras.initializers", "class_name": "Zeros", "config": {}, "registered_name": null}, "kernel_regularizer": null, "bias_regularizer": null, "kernel_constraint": null, "bias_constraint": null}, "name": "convnext_small_stage_2_block_12_pointwise_conv_2", "inbound_nodes": [{"args": [{"class_name": "__keras_tensor__", "config": {"shape": [null, 14, 14, 1536], "dtype": "float32", "keras_history": ["convnext_small_stage_2_block_12_gelu", 0, 0]}}], "kwargs": {}}]}, {"class_name": "LayerScale", "config": {"name": "convnext_small_stage_2_block_12_layer_scale", "trainable": false, "dtype": {"module": "keras", "class_name": "DTypePolicy", "config": {"name": "float32"}, "registered_name": null}, "init_values": 1e-06, "projection_dim": 384}, "name": "convnext_small_stage_2_block_12_layer_scale", "inbound_nodes": [{"args": [{"class_name": "__keras_tensor__", "config": {"shape": [null, 14, 14, 384], "dtype": "float32", "keras_history": ["convnext_small_stage_2_block_12_pointwise_conv_2", 0, 0]}}], "kwargs": {}}]}, {"class_name": "Activation", "config": {"name": "convnext_small_stage_2_block_12_identity", "trainable": false, "dtype": {"module": "keras", "class_name": "DTypePolicy", "config": {"name": "float32"}, "registered_name": null}, "activation": "linear"}, "name": "convnext_small_stage_2_block_12_identity", "inbound_nodes": [{"args": [{"class_name": "__keras_tensor__", "config": {"shape": [null, 14, 14, 384], "dtype": "float32", "keras_history": ["convnext_small_stage_2_block_12_layer_scale", 0, 0]}}], "kwargs": {}}]}, {"class_name": "Add", "config": {"name": "add_18"}, "name": "add_18", "inbound_nodes": [{"args": [{"class_name": "__keras_tensor__", "config": {"shape": [null, 14, 14, 384], "dtype": "float32", "keras_history": ["add_17", 0, 0]}}, {"class_name": "__keras_tensor__", "config": {"shape": [null, 14, 14, 384], "dtype": "float32", "keras_history": ["convnext_small_stage_2_block_12_identity", 0, 0]}}], "kwargs": {}}]}, {"class_name": "Conv2D", "config": {"name": "convnext_small_stage_2_block_13_depthwise_conv", "trainable": false, "dtype": {"module": "keras", "class_name": "DTypePolicy", "config": {"name": "float32"}, "registered_name": null}, "filters": 384, "kernel_size": [7, 7], "strides": [1, 1], "padding": "same", "data_format": "channels_last", "dilation_rate": [1, 1], "groups": 384, "activation": "linear", "use_bias": true, "kernel_initializer": {"module": "keras.initializers", "class_name": "GlorotUniform", "config": {"seed": null}, "registered_name": null}, "bias_initializer": {"module": "keras.initializers", "class_name": "Zeros", "config": {}, "registered_name": null}, "kernel_regularizer": null, "bias_regularizer": null, "activity_regularizer": null, "kernel_constraint": null, "bias_constraint": null}, "name": "convnext_small_stage_2_block_13_depthwise_conv", "inbound_nodes": [{"args": [{"class_name": "__keras_tensor__", "config": {"shape": [null, 14, 14, 384], "dtype": "float32", "keras_history": ["add_18", 0, 0]}}], "kwargs": {}}]}, {"class_name": "LayerNormalization", "config": {"name": "convnext_small_stage_2_block_13_layernorm", "trainable": false, "dtype": {"module": "keras", "class_name": "DTypePolicy", "config": {"name": "float32"}, "registered_name": null}, "axis": [-1], "epsilon": 1e-06, "center": true, "scale": true, "rms_scaling": false, "beta_initializer": {"module": "keras.initializers", "class_name": "Zeros", "config": {}, "registered_name": null}, "gamma_initializer": {"module": "keras.initializers", "class_name": "Ones", "config": {}, "registered_name": null}, "beta_regularizer": null, "gamma_regularizer": null, "beta_constraint": null, "gamma_constraint": null}, "name": "convnext_small_stage_2_block_13_layernorm", "inbound_nodes": [{"args": [{"class_name": "__keras_tensor__", "config": {"shape": [null, 14, 14, 384], "dtype": "float32", "keras_history": ["convnext_small_stage_2_block_13_depthwise_conv", 0, 0]}}], "kwargs": {}}]}, {"class_name": "Dense", "config": {"name": "convnext_small_stage_2_block_13_pointwise_conv_1", "trainable": false, "dtype": {"module": "keras", "class_name": "DTypePolicy", "config": {"name": "float32"}, "registered_name": null}, "units": 1536, "activation": "linear", "use_bias": true, "kernel_initializer": {"module": "keras.initializers", "class_name": "GlorotUniform", "config": {"seed": null}, "registered_name": null}, "bias_initializer": {"module": "keras.initializers", "class_name": "Zeros", "config": {}, "registered_name": null}, "kernel_regularizer": null, "bias_regularizer": null, "kernel_constraint": null, "bias_constraint": null}, "name": "convnext_small_stage_2_block_13_pointwise_conv_1", "inbound_nodes": [{"args": [{"class_name": "__keras_tensor__", "config": {"shape": [null, 14, 14, 384], "dtype": "float32", "keras_history": ["convnext_small_stage_2_block_13_layernorm", 0, 0]}}], "kwargs": {}}]}, {"class_name": "Activation", "config": {"name": "convnext_small_stage_2_block_13_gelu", "trainable": false, "dtype": {"module": "keras", "class_name": "DTypePolicy", "config": {"name": "float32"}, "registered_name": null}, "activation": "gelu"}, "name": "convnext_small_stage_2_block_13_gelu", "inbound_nodes": [{"args": [{"class_name": "__keras_tensor__", "config": {"shape": [null, 14, 14, 1536], "dtype": "float32", "keras_history": ["convnext_small_stage_2_block_13_pointwise_conv_1", 0, 0]}}], "kwargs": {}}]}, {"class_name": "Dense", "config": {"name": "convnext_small_stage_2_block_13_pointwise_conv_2", "trainable": false, "dtype": {"module": "keras", "class_name": "DTypePolicy", "config": {"name": "float32"}, "registered_name": null}, "units": 384, "activation": "linear", "use_bias": true, "kernel_initializer": {"module": "keras.initializers", "class_name": "GlorotUniform", "config": {"seed": null}, "registered_name": null}, "bias_initializer": {"module": "keras.initializers", "class_name": "Zeros", "config": {}, "registered_name": null}, "kernel_regularizer": null, "bias_regularizer": null, "kernel_constraint": null, "bias_constraint": null}, "name": "convnext_small_stage_2_block_13_pointwise_conv_2", "inbound_nodes": [{"args": [{"class_name": "__keras_tensor__", "config": {"shape": [null, 14, 14, 1536], "dtype": "float32", "keras_history": ["convnext_small_stage_2_block_13_gelu", 0, 0]}}], "kwargs": {}}]}, {"class_name": "LayerScale", "config": {"name": "convnext_small_stage_2_block_13_layer_scale", "trainable": false, "dtype": {"module": "keras", "class_name": "DTypePolicy", "config": {"name": "float32"}, "registered_name": null}, "init_values": 1e-06, "projection_dim": 384}, "name": "convnext_small_stage_2_block_13_layer_scale", "inbound_nodes": [{"args": [{"class_name": "__keras_tensor__", "config": {"shape": [null, 14, 14, 384], "dtype": "float32", "keras_history": ["convnext_small_stage_2_block_13_pointwise_conv_2", 0, 0]}}], "kwargs": {}}]}, {"class_name": "Activation", "config": {"name": "convnext_small_stage_2_block_13_identity", "trainable": false, "dtype": {"module": "keras", "class_name": "DTypePolicy", "config": {"name": "float32"}, "registered_name": null}, "activation": "linear"}, "name": "convnext_small_stage_2_block_13_identity", "inbound_nodes": [{"args": [{"class_name": "__keras_tensor__", "config": {"shape": [null, 14, 14, 384], "dtype": "float32", "keras_history": ["convnext_small_stage_2_block_13_layer_scale", 0, 0]}}], "kwargs": {}}]}, {"class_name": "Add", "config": {"name": "add_19"}, "name": "add_19", "inbound_nodes": [{"args": [{"class_name": "__keras_tensor__", "config": {"shape": [null, 14, 14, 384], "dtype": "float32", "keras_history": ["add_18", 0, 0]}}, {"class_name": "__keras_tensor__", "config": {"shape": [null, 14, 14, 384], "dtype": "float32", "keras_history": ["convnext_small_stage_2_block_13_identity", 0, 0]}}], "kwargs": {}}]}, {"class_name": "Conv2D", "config": {"name": "convnext_small_stage_2_block_14_depthwise_conv", "trainable": false, "dtype": {"module": "keras", "class_name": "DTypePolicy", "config": {"name": "float32"}, "registered_name": null}, "filters": 384, "kernel_size": [7, 7], "strides": [1, 1], "padding": "same", "data_format": "channels_last", "dilation_rate": [1, 1], "groups": 384, "activation": "linear", "use_bias": true, "kernel_initializer": {"module": "keras.initializers", "class_name": "GlorotUniform", "config": {"seed": null}, "registered_name": null}, "bias_initializer": {"module": "keras.initializers", "class_name": "Zeros", "config": {}, "registered_name": null}, "kernel_regularizer": null, "bias_regularizer": null, "activity_regularizer": null, "kernel_constraint": null, "bias_constraint": null}, "name": "convnext_small_stage_2_block_14_depthwise_conv", "inbound_nodes": [{"args": [{"class_name": "__keras_tensor__", "config": {"shape": [null, 14, 14, 384], "dtype": "float32", "keras_history": ["add_19", 0, 0]}}], "kwargs": {}}]}, {"class_name": "LayerNormalization", "config": {"name": "convnext_small_stage_2_block_14_layernorm", "trainable": false, "dtype": {"module": "keras", "class_name": "DTypePolicy", "config": {"name": "float32"}, "registered_name": null}, "axis": [-1], "epsilon": 1e-06, "center": true, "scale": true, "rms_scaling": false, "beta_initializer": {"module": "keras.initializers", "class_name": "Zeros", "config": {}, "registered_name": null}, "gamma_initializer": {"module": "keras.initializers", "class_name": "Ones", "config": {}, "registered_name": null}, "beta_regularizer": null, "gamma_regularizer": null, "beta_constraint": null, "gamma_constraint": null}, "name": "convnext_small_stage_2_block_14_layernorm", "inbound_nodes": [{"args": [{"class_name": "__keras_tensor__", "config": {"shape": [null, 14, 14, 384], "dtype": "float32", "keras_history": ["convnext_small_stage_2_block_14_depthwise_conv", 0, 0]}}], "kwargs": {}}]}, {"class_name": "Dense", "config": {"name": "convnext_small_stage_2_block_14_pointwise_conv_1", "trainable": false, "dtype": {"module": "keras", "class_name": "DTypePolicy", "config": {"name": "float32"}, "registered_name": null}, "units": 1536, "activation": "linear", "use_bias": true, "kernel_initializer": {"module": "keras.initializers", "class_name": "GlorotUniform", "config": {"seed": null}, "registered_name": null}, "bias_initializer": {"module": "keras.initializers", "class_name": "Zeros", "config": {}, "registered_name": null}, "kernel_regularizer": null, "bias_regularizer": null, "kernel_constraint": null, "bias_constraint": null}, "name": "convnext_small_stage_2_block_14_pointwise_conv_1", "inbound_nodes": [{"args": [{"class_name": "__keras_tensor__", "config": {"shape": [null, 14, 14, 384], "dtype": "float32", "keras_history": ["convnext_small_stage_2_block_14_layernorm", 0, 0]}}], "kwargs": {}}]}, {"class_name": "Activation", "config": {"name": "convnext_small_stage_2_block_14_gelu", "trainable": false, "dtype": {"module": "keras", "class_name": "DTypePolicy", "config": {"name": "float32"}, "registered_name": null}, "activation": "gelu"}, "name": "convnext_small_stage_2_block_14_gelu", "inbound_nodes": [{"args": [{"class_name": "__keras_tensor__", "config": {"shape": [null, 14, 14, 1536], "dtype": "float32", "keras_history": ["convnext_small_stage_2_block_14_pointwise_conv_1", 0, 0]}}], "kwargs": {}}]}, {"class_name": "Dense", "config": {"name": "convnext_small_stage_2_block_14_pointwise_conv_2", "trainable": false, "dtype": {"module": "keras", "class_name": "DTypePolicy", "config": {"name": "float32"}, "registered_name": null}, "units": 384, "activation": "linear", "use_bias": true, "kernel_initializer": {"module": "keras.initializers", "class_name": "GlorotUniform", "config": {"seed": null}, "registered_name": null}, "bias_initializer": {"module": "keras.initializers", "class_name": "Zeros", "config": {}, "registered_name": null}, "kernel_regularizer": null, "bias_regularizer": null, "kernel_constraint": null, "bias_constraint": null}, "name": "convnext_small_stage_2_block_14_pointwise_conv_2", "inbound_nodes": [{"args": [{"class_name": "__keras_tensor__", "config": {"shape": [null, 14, 14, 1536], "dtype": "float32", "keras_history": ["convnext_small_stage_2_block_14_gelu", 0, 0]}}], "kwargs": {}}]}, {"class_name": "LayerScale", "config": {"name": "convnext_small_stage_2_block_14_layer_scale", "trainable": false, "dtype": {"module": "keras", "class_name": "DTypePolicy", "config": {"name": "float32"}, "registered_name": null}, "init_values": 1e-06, "projection_dim": 384}, "name": "convnext_small_stage_2_block_14_layer_scale", "inbound_nodes": [{"args": [{"class_name": "__keras_tensor__", "config": {"shape": [null, 14, 14, 384], "dtype": "float32", "keras_history": ["convnext_small_stage_2_block_14_pointwise_conv_2", 0, 0]}}], "kwargs": {}}]}, {"class_name": "Activation", "config": {"name": "convnext_small_stage_2_block_14_identity", "trainable": false, "dtype": {"module": "keras", "class_name": "DTypePolicy", "config": {"name": "float32"}, "registered_name": null}, "activation": "linear"}, "name": "convnext_small_stage_2_block_14_identity", "inbound_nodes": [{"args": [{"class_name": "__keras_tensor__", "config": {"shape": [null, 14, 14, 384], "dtype": "float32", "keras_history": ["convnext_small_stage_2_block_14_layer_scale", 0, 0]}}], "kwargs": {}}]}, {"class_name": "Add", "config": {"name": "add_20"}, "name": "add_20", "inbound_nodes": [{"args": [{"class_name": "__keras_tensor__", "config": {"shape": [null, 14, 14, 384], "dtype": "float32", "keras_history": ["add_19", 0, 0]}}, {"class_name": "__keras_tensor__", "config": {"shape": [null, 14, 14, 384], "dtype": "float32", "keras_history": ["convnext_small_stage_2_block_14_identity", 0, 0]}}], "kwargs": {}}]}, {"class_name": "Conv2D", "config": {"name": "convnext_small_stage_2_block_15_depthwise_conv", "trainable": false, "dtype": {"module": "keras", "class_name": "DTypePolicy", "config": {"name": "float32"}, "registered_name": null}, "filters": 384, "kernel_size": [7, 7], "strides": [1, 1], "padding": "same", "data_format": "channels_last", "dilation_rate": [1, 1], "groups": 384, "activation": "linear", "use_bias": true, "kernel_initializer": {"module": "keras.initializers", "class_name": "GlorotUniform", "config": {"seed": null}, "registered_name": null}, "bias_initializer": {"module": "keras.initializers", "class_name": "Zeros", "config": {}, "registered_name": null}, "kernel_regularizer": null, "bias_regularizer": null, "activity_regularizer": null, "kernel_constraint": null, "bias_constraint": null}, "name": "convnext_small_stage_2_block_15_depthwise_conv", "inbound_nodes": [{"args": [{"class_name": "__keras_tensor__", "config": {"shape": [null, 14, 14, 384], "dtype": "float32", "keras_history": ["add_20", 0, 0]}}], "kwargs": {}}]}, {"class_name": "LayerNormalization", "config": {"name": "convnext_small_stage_2_block_15_layernorm", "trainable": false, "dtype": {"module": "keras", "class_name": "DTypePolicy", "config": {"name": "float32"}, "registered_name": null}, "axis": [-1], "epsilon": 1e-06, "center": true, "scale": true, "rms_scaling": false, "beta_initializer": {"module": "keras.initializers", "class_name": "Zeros", "config": {}, "registered_name": null}, "gamma_initializer": {"module": "keras.initializers", "class_name": "Ones", "config": {}, "registered_name": null}, "beta_regularizer": null, "gamma_regularizer": null, "beta_constraint": null, "gamma_constraint": null}, "name": "convnext_small_stage_2_block_15_layernorm", "inbound_nodes": [{"args": [{"class_name": "__keras_tensor__", "config": {"shape": [null, 14, 14, 384], "dtype": "float32", "keras_history": ["convnext_small_stage_2_block_15_depthwise_conv", 0, 0]}}], "kwargs": {}}]}, {"class_name": "Dense", "config": {"name": "convnext_small_stage_2_block_15_pointwise_conv_1", "trainable": false, "dtype": {"module": "keras", "class_name": "DTypePolicy", "config": {"name": "float32"}, "registered_name": null}, "units": 1536, "activation": "linear", "use_bias": true, "kernel_initializer": {"module": "keras.initializers", "class_name": "GlorotUniform", "config": {"seed": null}, "registered_name": null}, "bias_initializer": {"module": "keras.initializers", "class_name": "Zeros", "config": {}, "registered_name": null}, "kernel_regularizer": null, "bias_regularizer": null, "kernel_constraint": null, "bias_constraint": null}, "name": "convnext_small_stage_2_block_15_pointwise_conv_1", "inbound_nodes": [{"args": [{"class_name": "__keras_tensor__", "config": {"shape": [null, 14, 14, 384], "dtype": "float32", "keras_history": ["convnext_small_stage_2_block_15_layernorm", 0, 0]}}], "kwargs": {}}]}, {"class_name": "Activation", "config": {"name": "convnext_small_stage_2_block_15_gelu", "trainable": false, "dtype": {"module": "keras", "class_name": "DTypePolicy", "config": {"name": "float32"}, "registered_name": null}, "activation": "gelu"}, "name": "convnext_small_stage_2_block_15_gelu", "inbound_nodes": [{"args": [{"class_name": "__keras_tensor__", "config": {"shape": [null, 14, 14, 1536], "dtype": "float32", "keras_history": ["convnext_small_stage_2_block_15_pointwise_conv_1", 0, 0]}}], "kwargs": {}}]}, {"class_name": "Dense", "config": {"name": "convnext_small_stage_2_block_15_pointwise_conv_2", "trainable": false, "dtype": {"module": "keras", "class_name": "DTypePolicy", "config": {"name": "float32"}, "registered_name": null}, "units": 384, "activation": "linear", "use_bias": true, "kernel_initializer": {"module": "keras.initializers", "class_name": "GlorotUniform", "config": {"seed": null}, "registered_name": null}, "bias_initializer": {"module": "keras.initializers", "class_name": "Zeros", "config": {}, "registered_name": null}, "kernel_regularizer": null, "bias_regularizer": null, "kernel_constraint": null, "bias_constraint": null}, "name": "convnext_small_stage_2_block_15_pointwise_conv_2", "inbound_nodes": [{"args": [{"class_name": "__keras_tensor__", "config": {"shape": [null, 14, 14, 1536], "dtype": "float32", "keras_history": ["convnext_small_stage_2_block_15_gelu", 0, 0]}}], "kwargs": {}}]}, {"class_name": "LayerScale", "config": {"name": "convnext_small_stage_2_block_15_layer_scale", "trainable": false, "dtype": {"module": "keras", "class_name": "DTypePolicy", "config": {"name": "float32"}, "registered_name": null}, "init_values": 1e-06, "projection_dim": 384}, "name": "convnext_small_stage_2_block_15_layer_scale", "inbound_nodes": [{"args": [{"class_name": "__keras_tensor__", "config": {"shape": [null, 14, 14, 384], "dtype": "float32", "keras_history": ["convnext_small_stage_2_block_15_pointwise_conv_2", 0, 0]}}], "kwargs": {}}]}, {"class_name": "Activation", "config": {"name": "convnext_small_stage_2_block_15_identity", "trainable": false, "dtype": {"module": "keras", "class_name": "DTypePolicy", "config": {"name": "float32"}, "registered_name": null}, "activation": "linear"}, "name": "convnext_small_stage_2_block_15_identity", "inbound_nodes": [{"args": [{"class_name": "__keras_tensor__", "config": {"shape": [null, 14, 14, 384], "dtype": "float32", "keras_history": ["convnext_small_stage_2_block_15_layer_scale", 0, 0]}}], "kwargs": {}}]}, {"class_name": "Add", "config": {"name": "add_21"}, "name": "add_21", "inbound_nodes": [{"args": [{"class_name": "__keras_tensor__", "config": {"shape": [null, 14, 14, 384], "dtype": "float32", "keras_history": ["add_20", 0, 0]}}, {"class_name": "__keras_tensor__", "config": {"shape": [null, 14, 14, 384], "dtype": "float32", "keras_history": ["convnext_small_stage_2_block_15_identity", 0, 0]}}], "kwargs": {}}]}, {"class_name": "Conv2D", "config": {"name": "convnext_small_stage_2_block_16_depthwise_conv", "trainable": false, "dtype": {"module": "keras", "class_name": "DTypePolicy", "config": {"name": "float32"}, "registered_name": null}, "filters": 384, "kernel_size": [7, 7], "strides": [1, 1], "padding": "same", "data_format": "channels_last", "dilation_rate": [1, 1], "groups": 384, "activation": "linear", "use_bias": true, "kernel_initializer": {"module": "keras.initializers", "class_name": "GlorotUniform", "config": {"seed": null}, "registered_name": null}, "bias_initializer": {"module": "keras.initializers", "class_name": "Zeros", "config": {}, "registered_name": null}, "kernel_regularizer": null, "bias_regularizer": null, "activity_regularizer": null, "kernel_constraint": null, "bias_constraint": null}, "name": "convnext_small_stage_2_block_16_depthwise_conv", "inbound_nodes": [{"args": [{"class_name": "__keras_tensor__", "config": {"shape": [null, 14, 14, 384], "dtype": "float32", "keras_history": ["add_21", 0, 0]}}], "kwargs": {}}]}, {"class_name": "LayerNormalization", "config": {"name": "convnext_small_stage_2_block_16_layernorm", "trainable": false, "dtype": {"module": "keras", "class_name": "DTypePolicy", "config": {"name": "float32"}, "registered_name": null}, "axis": [-1], "epsilon": 1e-06, "center": true, "scale": true, "rms_scaling": false, "beta_initializer": {"module": "keras.initializers", "class_name": "Zeros", "config": {}, "registered_name": null}, "gamma_initializer": {"module": "keras.initializers", "class_name": "Ones", "config": {}, "registered_name": null}, "beta_regularizer": null, "gamma_regularizer": null, "beta_constraint": null, "gamma_constraint": null}, "name": "convnext_small_stage_2_block_16_layernorm", "inbound_nodes": [{"args": [{"class_name": "__keras_tensor__", "config": {"shape": [null, 14, 14, 384], "dtype": "float32", "keras_history": ["convnext_small_stage_2_block_16_depthwise_conv", 0, 0]}}], "kwargs": {}}]}, {"class_name": "Dense", "config": {"name": "convnext_small_stage_2_block_16_pointwise_conv_1", "trainable": false, "dtype": {"module": "keras", "class_name": "DTypePolicy", "config": {"name": "float32"}, "registered_name": null}, "units": 1536, "activation": "linear", "use_bias": true, "kernel_initializer": {"module": "keras.initializers", "class_name": "GlorotUniform", "config": {"seed": null}, "registered_name": null}, "bias_initializer": {"module": "keras.initializers", "class_name": "Zeros", "config": {}, "registered_name": null}, "kernel_regularizer": null, "bias_regularizer": null, "kernel_constraint": null, "bias_constraint": null}, "name": "convnext_small_stage_2_block_16_pointwise_conv_1", "inbound_nodes": [{"args": [{"class_name": "__keras_tensor__", "config": {"shape": [null, 14, 14, 384], "dtype": "float32", "keras_history": ["convnext_small_stage_2_block_16_layernorm", 0, 0]}}], "kwargs": {}}]}, {"class_name": "Activation", "config": {"name": "convnext_small_stage_2_block_16_gelu", "trainable": false, "dtype": {"module": "keras", "class_name": "DTypePolicy", "config": {"name": "float32"}, "registered_name": null}, "activation": "gelu"}, "name": "convnext_small_stage_2_block_16_gelu", "inbound_nodes": [{"args": [{"class_name": "__keras_tensor__", "config": {"shape": [null, 14, 14, 1536], "dtype": "float32", "keras_history": ["convnext_small_stage_2_block_16_pointwise_conv_1", 0, 0]}}], "kwargs": {}}]}, {"class_name": "Dense", "config": {"name": "convnext_small_stage_2_block_16_pointwise_conv_2", "trainable": false, "dtype": {"module": "keras", "class_name": "DTypePolicy", "config": {"name": "float32"}, "registered_name": null}, "units": 384, "activation": "linear", "use_bias": true, "kernel_initializer": {"module": "keras.initializers", "class_name": "GlorotUniform", "config": {"seed": null}, "registered_name": null}, "bias_initializer": {"module": "keras.initializers", "class_name": "Zeros", "config": {}, "registered_name": null}, "kernel_regularizer": null, "bias_regularizer": null, "kernel_constraint": null, "bias_constraint": null}, "name": "convnext_small_stage_2_block_16_pointwise_conv_2", "inbound_nodes": [{"args": [{"class_name": "__keras_tensor__", "config": {"shape": [null, 14, 14, 1536], "dtype": "float32", "keras_history": ["convnext_small_stage_2_block_16_gelu", 0, 0]}}], "kwargs": {}}]}, {"class_name": "LayerScale", "config": {"name": "convnext_small_stage_2_block_16_layer_scale", "trainable": false, "dtype": {"module": "keras", "class_name": "DTypePolicy", "config": {"name": "float32"}, "registered_name": null}, "init_values": 1e-06, "projection_dim": 384}, "name": "convnext_small_stage_2_block_16_layer_scale", "inbound_nodes": [{"args": [{"class_name": "__keras_tensor__", "config": {"shape": [null, 14, 14, 384], "dtype": "float32", "keras_history": ["convnext_small_stage_2_block_16_pointwise_conv_2", 0, 0]}}], "kwargs": {}}]}, {"class_name": "Activation", "config": {"name": "convnext_small_stage_2_block_16_identity", "trainable": false, "dtype": {"module": "keras", "class_name": "DTypePolicy", "config": {"name": "float32"}, "registered_name": null}, "activation": "linear"}, "name": "convnext_small_stage_2_block_16_identity", "inbound_nodes": [{"args": [{"class_name": "__keras_tensor__", "config": {"shape": [null, 14, 14, 384], "dtype": "float32", "keras_history": ["convnext_small_stage_2_block_16_layer_scale", 0, 0]}}], "kwargs": {}}]}, {"class_name": "Add", "config": {"name": "add_22"}, "name": "add_22", "inbound_nodes": [{"args": [{"class_name": "__keras_tensor__", "config": {"shape": [null, 14, 14, 384], "dtype": "float32", "keras_history": ["add_21", 0, 0]}}, {"class_name": "__keras_tensor__", "config": {"shape": [null, 14, 14, 384], "dtype": "float32", "keras_history": ["convnext_small_stage_2_block_16_identity", 0, 0]}}], "kwargs": {}}]}, {"class_name": "Conv2D", "config": {"name": "convnext_small_stage_2_block_17_depthwise_conv", "trainable": false, "dtype": {"module": "keras", "class_name": "DTypePolicy", "config": {"name": "float32"}, "registered_name": null}, "filters": 384, "kernel_size": [7, 7], "strides": [1, 1], "padding": "same", "data_format": "channels_last", "dilation_rate": [1, 1], "groups": 384, "activation": "linear", "use_bias": true, "kernel_initializer": {"module": "keras.initializers", "class_name": "GlorotUniform", "config": {"seed": null}, "registered_name": null}, "bias_initializer": {"module": "keras.initializers", "class_name": "Zeros", "config": {}, "registered_name": null}, "kernel_regularizer": null, "bias_regularizer": null, "activity_regularizer": null, "kernel_constraint": null, "bias_constraint": null}, "name": "convnext_small_stage_2_block_17_depthwise_conv", "inbound_nodes": [{"args": [{"class_name": "__keras_tensor__", "config": {"shape": [null, 14, 14, 384], "dtype": "float32", "keras_history": ["add_22", 0, 0]}}], "kwargs": {}}]}, {"class_name": "LayerNormalization", "config": {"name": "convnext_small_stage_2_block_17_layernorm", "trainable": false, "dtype": {"module": "keras", "class_name": "DTypePolicy", "config": {"name": "float32"}, "registered_name": null}, "axis": [-1], "epsilon": 1e-06, "center": true, "scale": true, "rms_scaling": false, "beta_initializer": {"module": "keras.initializers", "class_name": "Zeros", "config": {}, "registered_name": null}, "gamma_initializer": {"module": "keras.initializers", "class_name": "Ones", "config": {}, "registered_name": null}, "beta_regularizer": null, "gamma_regularizer": null, "beta_constraint": null, "gamma_constraint": null}, "name": "convnext_small_stage_2_block_17_layernorm", "inbound_nodes": [{"args": [{"class_name": "__keras_tensor__", "config": {"shape": [null, 14, 14, 384], "dtype": "float32", "keras_history": ["convnext_small_stage_2_block_17_depthwise_conv", 0, 0]}}], "kwargs": {}}]}, {"class_name": "Dense", "config": {"name": "convnext_small_stage_2_block_17_pointwise_conv_1", "trainable": false, "dtype": {"module": "keras", "class_name": "DTypePolicy", "config": {"name": "float32"}, "registered_name": null}, "units": 1536, "activation": "linear", "use_bias": true, "kernel_initializer": {"module": "keras.initializers", "class_name": "GlorotUniform", "config": {"seed": null}, "registered_name": null}, "bias_initializer": {"module": "keras.initializers", "class_name": "Zeros", "config": {}, "registered_name": null}, "kernel_regularizer": null, "bias_regularizer": null, "kernel_constraint": null, "bias_constraint": null}, "name": "convnext_small_stage_2_block_17_pointwise_conv_1", "inbound_nodes": [{"args": [{"class_name": "__keras_tensor__", "config": {"shape": [null, 14, 14, 384], "dtype": "float32", "keras_history": ["convnext_small_stage_2_block_17_layernorm", 0, 0]}}], "kwargs": {}}]}, {"class_name": "Activation", "config": {"name": "convnext_small_stage_2_block_17_gelu", "trainable": false, "dtype": {"module": "keras", "class_name": "DTypePolicy", "config": {"name": "float32"}, "registered_name": null}, "activation": "gelu"}, "name": "convnext_small_stage_2_block_17_gelu", "inbound_nodes": [{"args": [{"class_name": "__keras_tensor__", "config": {"shape": [null, 14, 14, 1536], "dtype": "float32", "keras_history": ["convnext_small_stage_2_block_17_pointwise_conv_1", 0, 0]}}], "kwargs": {}}]}, {"class_name": "Dense", "config": {"name": "convnext_small_stage_2_block_17_pointwise_conv_2", "trainable": false, "dtype": {"module": "keras", "class_name": "DTypePolicy", "config": {"name": "float32"}, "registered_name": null}, "units": 384, "activation": "linear", "use_bias": true, "kernel_initializer": {"module": "keras.initializers", "class_name": "GlorotUniform", "config": {"seed": null}, "registered_name": null}, "bias_initializer": {"module": "keras.initializers", "class_name": "Zeros", "config": {}, "registered_name": null}, "kernel_regularizer": null, "bias_regularizer": null, "kernel_constraint": null, "bias_constraint": null}, "name": "convnext_small_stage_2_block_17_pointwise_conv_2", "inbound_nodes": [{"args": [{"class_name": "__keras_tensor__", "config": {"shape": [null, 14, 14, 1536], "dtype": "float32", "keras_history": ["convnext_small_stage_2_block_17_gelu", 0, 0]}}], "kwargs": {}}]}, {"class_name": "LayerScale", "config": {"name": "convnext_small_stage_2_block_17_layer_scale", "trainable": false, "dtype": {"module": "keras", "class_name": "DTypePolicy", "config": {"name": "float32"}, "registered_name": null}, "init_values": 1e-06, "projection_dim": 384}, "name": "convnext_small_stage_2_block_17_layer_scale", "inbound_nodes": [{"args": [{"class_name": "__keras_tensor__", "config": {"shape": [null, 14, 14, 384], "dtype": "float32", "keras_history": ["convnext_small_stage_2_block_17_pointwise_conv_2", 0, 0]}}], "kwargs": {}}]}, {"class_name": "Activation", "config": {"name": "convnext_small_stage_2_block_17_identity", "trainable": false, "dtype": {"module": "keras", "class_name": "DTypePolicy", "config": {"name": "float32"}, "registered_name": null}, "activation": "linear"}, "name": "convnext_small_stage_2_block_17_identity", "inbound_nodes": [{"args": [{"class_name": "__keras_tensor__", "config": {"shape": [null, 14, 14, 384], "dtype": "float32", "keras_history": ["convnext_small_stage_2_block_17_layer_scale", 0, 0]}}], "kwargs": {}}]}, {"class_name": "Add", "config": {"name": "add_23"}, "name": "add_23", "inbound_nodes": [{"args": [{"class_name": "__keras_tensor__", "config": {"shape": [null, 14, 14, 384], "dtype": "float32", "keras_history": ["add_22", 0, 0]}}, {"class_name": "__keras_tensor__", "config": {"shape": [null, 14, 14, 384], "dtype": "float32", "keras_history": ["convnext_small_stage_2_block_17_identity", 0, 0]}}], "kwargs": {}}]}, {"class_name": "Conv2D", "config": {"name": "convnext_small_stage_2_block_18_depthwise_conv", "trainable": false, "dtype": {"module": "keras", "class_name": "DTypePolicy", "config": {"name": "float32"}, "registered_name": null}, "filters": 384, "kernel_size": [7, 7], "strides": [1, 1], "padding": "same", "data_format": "channels_last", "dilation_rate": [1, 1], "groups": 384, "activation": "linear", "use_bias": true, "kernel_initializer": {"module": "keras.initializers", "class_name": "GlorotUniform", "config": {"seed": null}, "registered_name": null}, "bias_initializer": {"module": "keras.initializers", "class_name": "Zeros", "config": {}, "registered_name": null}, "kernel_regularizer": null, "bias_regularizer": null, "activity_regularizer": null, "kernel_constraint": null, "bias_constraint": null}, "name": "convnext_small_stage_2_block_18_depthwise_conv", "inbound_nodes": [{"args": [{"class_name": "__keras_tensor__", "config": {"shape": [null, 14, 14, 384], "dtype": "float32", "keras_history": ["add_23", 0, 0]}}], "kwargs": {}}]}, {"class_name": "LayerNormalization", "config": {"name": "convnext_small_stage_2_block_18_layernorm", "trainable": false, "dtype": {"module": "keras", "class_name": "DTypePolicy", "config": {"name": "float32"}, "registered_name": null}, "axis": [-1], "epsilon": 1e-06, "center": true, "scale": true, "rms_scaling": false, "beta_initializer": {"module": "keras.initializers", "class_name": "Zeros", "config": {}, "registered_name": null}, "gamma_initializer": {"module": "keras.initializers", "class_name": "Ones", "config": {}, "registered_name": null}, "beta_regularizer": null, "gamma_regularizer": null, "beta_constraint": null, "gamma_constraint": null}, "name": "convnext_small_stage_2_block_18_layernorm", "inbound_nodes": [{"args": [{"class_name": "__keras_tensor__", "config": {"shape": [null, 14, 14, 384], "dtype": "float32", "keras_history": ["convnext_small_stage_2_block_18_depthwise_conv", 0, 0]}}], "kwargs": {}}]}, {"class_name": "Dense", "config": {"name": "convnext_small_stage_2_block_18_pointwise_conv_1", "trainable": false, "dtype": {"module": "keras", "class_name": "DTypePolicy", "config": {"name": "float32"}, "registered_name": null}, "units": 1536, "activation": "linear", "use_bias": true, "kernel_initializer": {"module": "keras.initializers", "class_name": "GlorotUniform", "config": {"seed": null}, "registered_name": null}, "bias_initializer": {"module": "keras.initializers", "class_name": "Zeros", "config": {}, "registered_name": null}, "kernel_regularizer": null, "bias_regularizer": null, "kernel_constraint": null, "bias_constraint": null}, "name": "convnext_small_stage_2_block_18_pointwise_conv_1", "inbound_nodes": [{"args": [{"class_name": "__keras_tensor__", "config": {"shape": [null, 14, 14, 384], "dtype": "float32", "keras_history": ["convnext_small_stage_2_block_18_layernorm", 0, 0]}}], "kwargs": {}}]}, {"class_name": "Activation", "config": {"name": "convnext_small_stage_2_block_18_gelu", "trainable": false, "dtype": {"module": "keras", "class_name": "DTypePolicy", "config": {"name": "float32"}, "registered_name": null}, "activation": "gelu"}, "name": "convnext_small_stage_2_block_18_gelu", "inbound_nodes": [{"args"…
{"seed": null}, "registered_name": null}, "bias_initializer": {"module": "keras.initializers", "class_name": "Zeros", "config": {}, "registered_name": null}, "kernel_regularizer": null, "bias_regularizer": null, "kernel_constraint": null, "bias_constraint": null}, "name": "convnext_small_stage_3_block_2_pointwise_conv_1", "inbound_nodes": [{"args": [{"class_name": "__keras_tensor__", "config": {"shape": [null, 7, 7, 768], "dtype": "float32", "keras_history": ["convnext_small_stage_3_block_2_layernorm", 0, 0]}}], "kwargs": {}}]}, {"class_name": "Activation", "config": {"name": "convnext_small_stage_3_block_2_gelu", "trainable": false, "dtype": {"module": "keras", "class_name": "DTypePolicy", "config": {"name": "float32"}, "registered_name": null}, "activation": "gelu"}, "name": "convnext_small_stage_3_block_2_gelu", "inbound_nodes": [{"args": [{"class_name": "__keras_tensor__", "config": {"shape": [null, 7, 7, 3072], "dtype": "float32", "keras_history": ["convnext_small_stage_3_block_2_pointwise_conv_1", 0, 0]}}], "kwargs": {}}]}, {"class_name": "Dense", "config": {"name": "convnext_small_stage_3_block_2_pointwise_conv_2", "trainable": false, "dtype": {"module": "keras", "class_name": "DTypePolicy", "config": {"name": "float32"}, "registered_name": null}, "units": 768, "activation": "linear", "use_bias": true, "kernel_initializer": {"module": "keras.initializers", "class_name": "GlorotUniform", "config": {"seed": null}, "registered_name": null}, "bias_initializer": {"module": "keras.initializers", "class_name": "Zeros", "config": {}, "registered_name": null}, "kernel_regularizer": null, "bias_regularizer": null, "kernel_constraint": null, "bias_constraint": null}, "name": "convnext_small_stage_3_block_2_pointwise_conv_2", "inbound_nodes": [{"args": [{"class_name": "__keras_tensor__", "config": {"shape": [null, 7, 7, 3072], "dtype": "float32", "keras_history": ["convnext_small_stage_3_block_2_gelu", 0, 0]}}], "kwargs": {}}]}, {"class_name": "LayerScale", "config": {"name": "convnext_small_stage_3_block_2_layer_scale", "trainable": false, "dtype": {"module": "keras", "class_name": "DTypePolicy", "config": {"name": "float32"}, "registered_name": null}, "init_values": 1e-06, "projection_dim": 768}, "name": "convnext_small_stage_3_block_2_layer_scale", "inbound_nodes": [{"args": [{"class_name": "__keras_tensor__", "config": {"shape": [null, 7, 7, 768], "dtype": "float32", "keras_history": ["convnext_small_stage_3_block_2_pointwise_conv_2", 0, 0]}}], "kwargs": {}}]}, {"class_name": "Activation", "config": {"name": "convnext_small_stage_3_block_2_identity", "trainable": false, "dtype": {"module": "keras", "class_name": "DTypePolicy", "config": {"name": "float32"}, "registered_name": null}, "activation": "linear"}, "name": "convnext_small_stage_3_block_2_identity", "inbound_nodes": [{"args": [{"class_name": "__keras_tensor__", "config": {"shape": [null, 7, 7, 768], "dtype": "float32", "keras_history": ["convnext_small_stage_3_block_2_layer_scale", 0, 0]}}], "kwargs": {}}]}, {"class_name": "Add", "config": {"name": "add_35"}, "name": "add_35", "inbound_nodes": [{"args": [{"class_name": "__keras_tensor__", "config": {"shape": [null, 7, 7, 768], "dtype": "float32", "keras_history": ["add_34", 0, 0]}}, {"class_name": "__keras_tensor__", "config": {"shape": [null, 7, 7, 768], "dtype": "float32", "keras_history": ["convnext_small_stage_3_block_2_identity", 0, 0]}}], "kwargs": {}}]}, {"class_name": "LayerNormalization", "config": {"name": "layer_normalization", "trainable": false, "dtype": {"module": "keras", "class_name": "DTypePolicy", "config": {"name": "float32"}, "registered_name": null}, "axis": [-1], "epsilon": 1e-06, "center": true, "scale": true, "rms_scaling": false, "beta_initializer": {"module": "keras.initializers", "class_name": "Zeros", "config": {}, "registered_name": null}, "gamma_initializer": {"module": "keras.initializers", "class_name": "Ones", "config": {}, "registered_name": null}, "beta_regularizer": null, "gamma_regularizer": null, "beta_constraint": null, "gamma_constraint": null}, "name": "layer_normalization", "inbound_nodes": [{"args": [{"class_name": "__keras_tensor__", "config": {"shape": [null, 7, 7, 768], "dtype": "float32", "keras_history": ["add_35", 0, 0]}}], "kwargs": {}}]}, {"class_name": "Flatten", "config": {"name": "flatten", "trainable": true, "dtype": {"module": "keras", "class_name": "DTypePolicy", "config": {"name": "float32"}, "registered_name": null}, "data_format": "channels_last"}, "name": "flatten", "inbound_nodes": [{"args": [{"class_name": "__keras_tensor__", "config": {"shape": [null, 7, 7, 768], "dtype": "float32", "keras_history": ["layer_normalization", 0, 0]}}], "kwargs": {}}]}, {"class_name": "Dense", "config": {"name": "dense", "trainable": true, "dtype": {"module": "keras", "class_name": "DTypePolicy", "config": {"name": "float32"}, "registered_name": null}, "units": 2048, "activation": "relu", "use_bias": true, "kernel_initializer": {"module": "keras.initializers", "class_name": "GlorotUniform", "config": {"seed": null}, "registered_name": null}, "bias_initializer": {"module": "keras.initializers", "class_name": "Zeros", "config": {}, "registered_name": null}, "kernel_regularizer": null, "bias_regularizer": null, "kernel_constraint": null, "bias_constraint": null}, "name": "dense", "inbound_nodes": [{"args": [{"class_name": "__keras_tensor__", "config": {"shape": [null, 37632], "dtype": "float32", "keras_history": ["flatten", 0, 0]}}], "kwargs": {}}]}, {"class_name": "Dense", "config": {"name": "dense_1", "trainable": true, "dtype": {"module": "keras", "class_name": "DTypePolicy", "config": {"name": "float32"}, "registered_name": null}, "units": 512, "activation": "relu", "use_bias": true, "kernel_initializer": {"module": "keras.initializers", "class_name": "GlorotUniform", "config": {"seed": null}, "registered_name": null}, "bias_initializer": {"module": "keras.initializers", "class_name": "Zeros", "config": {}, "registered_name": null}, "kernel_regularizer": null, "bias_regularizer": null, "kernel_constraint": null, "bias_constraint": null}, "name": "dense_1", "inbound_nodes": [{"args": [{"class_name": "__keras_tensor__", "config": {"shape": [null, 2048], "dtype": "float32", "keras_history": ["dense", 0, 0]}}], "kwargs": {}}]}, {"class_name": "Dense", "config": {"name": "dense_2", "trainable": true, "dtype": {"module": "keras", "class_name": "DTypePolicy", "config": {"name": "float32"}, "registered_name": null}, "units": 128, "activation": "relu", "use_bias": true, "kernel_initializer": {"module": "keras.initializers", "class_name": "GlorotUniform", "config": {"seed": null}, "registered_name": null}, "bias_initializer": {"module": "keras.initializers", "class_name": "Zeros", "config": {}, "registered_name": null}, "kernel_regularizer": null, "bias_regularizer": null, "kernel_constraint": null, "bias_constraint": null}, "name": "dense_2", "inbound_nodes": [{"args": [{"class_name": "__keras_tensor__", "config": {"shape": [null, 512], "dtype": "float32", "keras_history": ["dense_1", 0, 0]}}], "kwargs": {}}]}, {"class_name": "Dense", "config": {"name": "dense_3", "trainable": true, "dtype": {"module": "keras", "class_name": "DTypePolicy", "config": {"name": "float32"}, "registered_name": null}, "units": 128, "activation": "relu", "use_bias": true, "kernel_initializer": {"module": "keras.initializers", "class_name": "GlorotUniform", "config": {"seed": null}, "registered_name": null}, "bias_initializer": {"module": "keras.initializers", "class_name": "Zeros", "config": {}, "registered_name": null}, "kernel_regularizer": null, "bias_regularizer": null, "kernel_constraint": null, "bias_constraint": null}, "name": "dense_3", "inbound_nodes": [{"args": [{"class_name": "__keras_tensor__", "config": {"shape": [null, 128], "dtype": "float32", "keras_history": ["dense_2", 0, 0]}}], "kwargs": {}}]}, {"class_name": "Dense", "config": {"name": "dense_4", "trainable": true, "dtype": {"module": "keras", "class_name": "DTypePolicy", "config": {"name": "float32"}, "registered_name": null}, "units": 16, "activation": "sigmoid", "use_bias": true, "kernel_initializer": {"module": "keras.initializers", "class_name": "GlorotUniform", "config": {"seed": null}, "registered_name": null}, "bias_initializer": {"module": "keras.initializers", "class_name": "Zeros", "config": {}, "registered_name": null}, "kernel_regularizer": null, "bias_regularizer": null, "kernel_constraint": null, "bias_constraint": null}, "name": "dense_4", "inbound_nodes": [{"args": [{"class_name": "__keras_tensor__", "config": {"shape": [null, 128], "dtype": "float32", "keras_history": ["dense_3", 0, 0]}}], "kwargs": {}}]}, {"class_name": "Dense", "config": {"name": "dense_5", "trainable": true, "dtype": {"module": "keras", "class_name": "DTypePolicy", "config": {"name": "float32"}, "registered_name": null}, "units": 5, "activation": "softmax", "use_bias": true, "kernel_initializer": {"module": "keras.initializers", "class_name": "GlorotUniform", "config": {"seed": null}, "registered_name": null}, "bias_initializer": {"module": "keras.initializers", "class_name": "Zeros", "config": {}, "registered_name": null}, "kernel_regularizer": null, "bias_regularizer": null, "kernel_constraint": null, "bias_constraint": null}, "name": "dense_5", "inbound_nodes": [{"args": [{"class_name": "__keras_tensor__", "config": {"shape": [null, 16], "dtype": "float32", "keras_history": ["dense_4", 0, 0]}}], "kwargs": {}}]}], "input_layers": [["input_layer", 0, 0]], "output_layers": [["dense_5", 0, 0]]}}, "training_config": {"loss": "categorical_crossentropy", "loss_weights": null, "metrics": ["accuracy"], "weighted_metrics": null, "run_eagerly": false, "steps_per_execution": 1, "jit_compile": true, "optimizer_config": {"class_name": "SGD", "config": {"name": "SGD", "learning_rate": 0.009999999776482582, "weight_decay": null, "clipnorm": null, "global_clipnorm": null, "clipvalue": null, "use_ema": false, "ema_momentum": 0.99, "ema_overwrite_frequency": null, "loss_scale_factor": null, "gradient_accumulation_steps": null, "momentum": 0.0, "nesterov": false}}}}, "weightsManifest": [{"paths": ["group1-shard1of122.bin", "group1-shard2of122.bin", "group1-shard3of122.bin", "group1-shard4of122.bin", "group1-shard5of122.bin", "group1-shard6of122.bin", "group1-shard7of122.bin", "group1-shard8of122.bin", "group1-shard9of122.bin", "group1-shard10of122.bin", "group1-shard11of122.bin", "group1-shard12of122.bin", "group1-shard13of122.bin", "group1-shard14of122.bin", "group1-shard15of122.bin", "group1-shard16of122.bin", "group1-shard17of122.bin", "group1-shard18of122.bin", "group1-shard19of122.bin", "group1-shard20of122.bin", "group1-shard21of122.bin", "group1-shard22of122.bin", "group1-shard23of122.bin", "group1-shard24of122.bin", "group1-shard25of122.bin", "group1-shard26of122.bin", "group1-shard27of122.bin", "group1-shard28of122.bin", "group1-shard29of122.bin", "group1-shard30of122.bin", "group1-shard31of122.bin", "group1-shard32of122.bin", "group1-shard33of122.bin", "group1-shard34of122.bin", "group1-shard35of122.bin", "group1-shard36of122.bin", "group1-shard37of122.bin", "group1-shard38of122.bin", "group1-shard39of122.bin", "group1-shard40of122.bin", "group1-shard41of122.bin", "group1-shard42of122.bin", "group1-shard43of122.bin", "group1-shard44of122.bin", "group1-shard45of122.bin", "group1-shard46of122.bin", "group1-shard47of122.bin", "group1-shard48of122.bin", "group1-shard49of122.bin", "group1-shard50of122.bin", "group1-shard51of122.bin", "group1-shard52of122.bin", "group1-shard53of122.bin", "group1-shard54of122.bin", "group1-shard55of122.bin", "group1-shard56of122.bin", "group1-shard57of122.bin", "group1-shard58of122.bin", "group1-shard59of122.bin", "group1-shard60of122.bin", "group1-shard61of122.bin", "group1-shard62of122.bin", "group1-shard63of122.bin", "group1-shard64of122.bin", "group1-shard65of122.bin", "group1-shard66of122.bin", "group1-shard67of122.bin", "group1-shard68of122.bin", "group1-shard69of122.bin", "group1-shard70of122.bin", "group1-shard71of122.bin", "group1-shard72of122.bin", "group1-shard73of122.bin", "group1-shard74of122.bin", "group1-shard75of122.bin", "group1-shard76of122.bin", "group1-shard77of122.bin", "group1-shard78of122.bin", "group1-shard79of122.bin", "group1-shard80of122.bin", "group1-shard81of122.bin", "group1-shard82of122.bin", "group1-shard83of122.bin", "group1-shard84of122.bin", "group1-shard85of122.bin", "group1-shard86of122.bin", "group1-shard87of122.bin", "group1-shard88of122.bin", "group1-shard89of122.bin", "group1-shard90of122.bin", "group1-shard91of122.bin", "group1-shard92of122.bin", "group1-shard93of122.bin", "group1-shard94of122.bin", "group1-shard95of122.bin", "group1-shard96of122.bin", "group1-shard97of122.bin", "group1-shard98of122.bin", "group1-shard99of122.bin", "group1-shard100of122.bin", "group1-shard101of122.bin", "group1-shard102of122.bin", "group1-shard103of122.bin", "group1-shard104of122.bin", "group1-shard105of122.bin", "group1-shard106of122.bin", "group1-shard107of122.bin", "group1-shard108of122.bin", "group1-shard109of122.bin", "group1-shard110of122.bin", "group1-shard111of122.bin", "group1-shard112of122.bin", "group1-shard113of122.bin", "group1-shard114of122.bin", "group1-shard115of122.bin", "group1-shard116of122.bin", "group1-shard117of122.bin", "group1-shard118of122.bin", "group1-shard119of122.bin", "group1-shard120of122.bin", "group1-shard121of122.bin", "group1-shard122of122.bin"], "weights": [{"name": "convnext_small_downsampling_block_0/convnext_small_downsampling_layernorm_0/gamma", "shape": [96], "dtype": "float32"}, {"name": "convnext_small_downsampling_block_0/convnext_small_downsampling_layernorm_0/beta", "shape": [96], "dtype": "float32"}, {"name": "convnext_small_downsampling_block_0/convnext_small_downsampling_conv_0/kernel", "shape": [2, 2, 96, 192], "dtype": "float32"}, {"name": "convnext_small_downsampling_block_0/convnext_small_downsampling_conv_0/bias", "shape": [192], "dtype": "float32"}, {"name": "convnext_small_downsampling_block_1/convnext_small_downsampling_layernorm_1/gamma", "shape": [192], "dtype": "float32"}, {"name": "convnext_small_downsampling_block_1/convnext_small_downsampling_layernorm_1/beta", "shape": [192], "dtype": "float32"}, {"name": "convnext_small_downsampling_block_1/convnext_small_downsampling_conv_1/kernel", "shape": [2, 2, 192, 384], "dtype": "float32"}, {"name": "convnext_small_downsampling_block_1/convnext_small_downsampling_conv_1/bias", "shape": [384], "dtype": "float32"}, {"name": "convnext_small_downsampling_block_2/convnext_small_downsampling_layernorm_2/gamma", "shape": [384], "dtype": "float32"}, {"name": "convnext_small_downsampling_block_2/convnext_small_downsampling_layernorm_2/beta", "shape": [384], "dtype": "float32"}, {"name": "convnext_small_downsampling_block_2/convnext_small_downsampling_conv_2/kernel", "shape": [2, 2, 384, 768], "dtype": "float32"}, {"name": "convnext_small_downsampling_block_2/convnext_small_downsampling_conv_2/bias", "shape": [768], "dtype": "float32"}, {"name": "convnext_small_stage_0_block_0_depthwise_conv/kernel", "shape": [7, 7, 1, 96], "dtype": "float32"}, {"name": "convnext_small_stage_0_block_0_depthwise_conv/bias", "shape": [96], "dtype": "float32"}, {"name": "convnext_small_stage_0_block_0_layer_scale/variable", "shape": [96], "dtype": "float32"}, {"name": "convnext_small_stage_0_block_0_layernorm/gamma", "shape": [96], "dtype": "float32"}, {"name": "convnext_small_stage_0_block_0_layernorm/beta", "shape": [96], "dtype": "float32"}, {"name": "convnext_small_stage_0_block_0_pointwise_conv_1/kernel", "shape": [96, 384], "dtype": "float32"}, {"name": "convnext_small_stage_0_block_0_pointwise_conv_1/bias", "shape": [384], "dtype": "float32"}, {"name": "convnext_small_stage_0_block_0_pointwise_conv_2/kernel", "shape": [384, 96], "dtype": "float32"}, {"name": "convnext_small_stage_0_block_0_pointwise_conv_2/bias", "shape": [96], "dtype": "float32"}, {"name": "convnext_small_stage_0_block_1_depthwise_conv/kernel", "shape": [7, 7, 1, 96], "dtype": "float32"}, {"name": "convnext_small_stage_0_block_1_depthwise_conv/bias", "shape": [96], "dtype": "float32"}, {"name": "convnext_small_stage_0_block_1_layer_scale/variable_1", "shape": [96], "dtype": "float32"}, {"name": "convnext_small_stage_0_block_1_layernorm/gamma", "shape": [96], "dtype": "float32"}, {"name": "convnext_small_stage_0_block_1_layernorm/beta", "shape": [96], "dtype": "float32"}, {"name": "convnext_small_stage_0_block_1_pointwise_conv_1/kernel", "shape": [96, 384], "dtype": "float32"}, {"name": "convnext_small_stage_0_block_1_pointwise_conv_1/bias", "shape": [384], "dtype": "float32"}, {"name": "convnext_small_stage_0_block_1_pointwise_conv_2/kernel", "shape": [384, 96], "dtype": "float32"}, {"name": "convnext_small_stage_0_block_1_pointwise_conv_2/bias", "shape": [96], "dtype": "float32"}, {"name": "convnext_small_stage_0_block_2_depthwise_conv/kernel", "shape": [7, 7, 1, 96], "dtype": "float32"}, {"name": "convnext_small_stage_0_block_2_depthwise_conv/bias", "shape": [96], "dtype": "float32"}, {"name": "convnext_small_stage_0_block_2_layer_scale/variable_2", "shape": [96], "dtype": "float32"}, {"name": "convnext_small_stage_0_block_2_layernorm/gamma", "shape": [96], "dtype": "float32"}, {"name": "convnext_small_stage_0_block_2_layernorm/beta", "shape": [96], "dtype": "float32"}, {"name": "convnext_small_stage_0_block_2_pointwise_conv_1/kernel", "shape": [96, 384], "dtype": "float32"}, {"name": "convnext_small_stage_0_block_2_pointwise_conv_1/bias", "shape": [384], "dtype": "float32"}, {"name": "convnext_small_stage_0_block_2_pointwise_conv_2/kernel", "shape": [384, 96], "dtype": "float32"}, {"name": "convnext_small_stage_0_block_2_pointwise_conv_2/bias", "shape": [96], "dtype": "float32"}, {"name": "convnext_small_stage_1_block_0_depthwise_conv/kernel", "shape": [7, 7, 1, 192], "dtype": "float32"}, {"name": "convnext_small_stage_1_block_0_depthwise_conv/bias", "shape": [192], "dtype": "float32"}, {"name": "convnext_small_stage_1_block_0_layer_scale/variable_3", "shape": [192], "dtype": "float32"}, {"name": "convnext_small_stage_1_block_0_layernorm/gamma", "shape": [192], "dtype": "float32"}, {"name": "convnext_small_stage_1_block_0_layernorm/beta", "shape": [192], "dtype": "float32"}, {"name": "convnext_small_stage_1_block_0_pointwise_conv_1/kernel", "shape": [192, 768], "dtype": "float32"}, {"name": "convnext_small_stage_1_block_0_pointwise_conv_1/bias", "shape": [768], "dtype": "float32"}, {"name": "convnext_small_stage_1_block_0_pointwise_conv_2/kernel", "shape": [768, 192], "dtype": "float32"}, {"name": "convnext_small_stage_1_block_0_pointwise_conv_2/bias", "shape": [192], "dtype": "float32"}, {"name": "convnext_small_stage_1_block_1_depthwise_conv/kernel", "shape": [7, 7, 1, 192], "dtype": "float32"}, {"name": "convnext_small_stage_1_block_1_depthwise_conv/bias", "shape": [192], "dtype": "float32"}, {"name": "convnext_small_stage_1_block_1_layer_scale/variable_4", "shape": [192], "dtype": "float32"}, {"name": "convnext_small_stage_1_block_1_layernorm/gamma", "shape": [192], "dtype": "float32"}, {"name": "convnext_small_stage_1_block_1_layernorm/beta", "shape": [192], "dtype": "float32"}, {"name": "convnext_small_stage_1_block_1_pointwise_conv_1/kernel", "shape": [192, 768], "dtype": "float32"}, {"name": "convnext_small_stage_1_block_1_pointwise_conv_1/bias", "shape": [768], "dtype": "float32"}, {"name": "convnext_small_stage_1_block_1_pointwise_conv_2/kernel", "shape": [768, 192], "dtype": "float32"}, {"name": "convnext_small_stage_1_block_1_pointwise_conv_2/bias", "shape": [192], "dtype": "float32"}, {"name": "convnext_small_stage_1_block_2_depthwise_conv/kernel", "shape": [7, 7, 1, 192], "dtype": "float32"}, {"name": "convnext_small_stage_1_block_2_depthwise_conv/bias", "shape": [192], "dtype": "float32"}, {"name": "convnext_small_stage_1_block_2_layer_scale/variable_5", "shape": [192], "dtype": "float32"}, {"name": "convnext_small_stage_1_block_2_layernorm/gamma", "shape": [192], "dtype": "float32"}, {"name": "convnext_small_stage_1_block_2_layernorm/beta", "shape": [192], "dtype": "float32"}, {"name": "convnext_small_stage_1_block_2_pointwise_conv_1/kernel", "shape": [192, 768], "dtype": "float32"}, {"name": "convnext_small_stage_1_block_2_pointwise_conv_1/bias", "shape": [768], "dtype": "float32"}, {"name": "convnext_small_stage_1_block_2_pointwise_conv_2/kernel", "shape": [768, 192], "dtype": "float32"}, {"name": "convnext_small_stage_1_block_2_pointwise_conv_2/bias", "shape": [192], "dtype": "float32"}, {"name": "convnext_small_stage_2_block_0_depthwise_conv/kernel", "shape": [7, 7, 1, 384], "dtype": "float32"}, {"name": "convnext_small_stage_2_block_0_depthwise_conv/bias", "shape": [384], "dtype": "float32"}, {"name": "convnext_small_stage_2_block_0_layer_scale/variable_6", "shape": [384], "dtype": "float32"}, {"name": "convnext_small_stage_2_block_0_layernorm/gamma", "shape": [384], "dtype": "float32"}, {"name": "convnext_small_stage_2_block_0_layernorm/beta", "shape": [384], "dtype": "float32"}, {"name": "convnext_small_stage_2_block_0_pointwise_conv_1/kernel", "shape": [384, 1536], "dtype": "float32"}, {"name": "convnext_small_stage_2_block_0_pointwise_conv_1/bias", "shape": [1536], "dtype": "float32"}, {"name": "convnext_small_stage_2_block_0_pointwise_conv_2/kernel", "shape": [1536, 384], "dtype": "float32"}, {"name": "convnext_small_stage_2_block_0_pointwise_conv_2/bias", "shape": [384], "dtype": "float32"}, {"name": "convnext_small_stage_2_block_10_depthwise_conv/kernel", "shape": [7, 7, 1, 384], "dtype": "float32"}, {"name": "convnext_small_stage_2_block_10_depthwise_conv/bias", "shape": [384], "dtype": "float32"}, {"name": "convnext_small_stage_2_block_10_layer_scale/variable_16", "shape": [384], "dtype": "float32"}, {"name": "convnext_small_stage_2_block_10_layernorm/gamma", "shape": [384], "dtype": "float32"}, {"name": "convnext_small_stage_2_block_10_layernorm/beta", "shape": [384], "dtype": "float32"}, {"name": "convnext_small_stage_2_block_10_pointwise_conv_1/kernel", "shape": [384, 1536], "dtype": "float32"}, {"name": "convnext_small_stage_2_block_10_pointwise_conv_1/bias", "shape": [1536], "dtype": "float32"}, {"name": "convnext_small_stage_2_block_10_pointwise_conv_2/kernel", "shape": [1536, 384], "dtype": "float32"}, {"name": "convnext_small_stage_2_block_10_pointwise_conv_2/bias", "shape": [384], "dtype": "float32"}, {"name": "convnext_small_stage_2_block_11_depthwise_conv/kernel", "shape": [7, 7, 1, 384], "dtype": "float32"}, {"name": "convnext_small_stage_2_block_11_depthwise_conv/bias", "shape": [384], "dtype": "float32"}, {"name": "convnext_small_stage_2_block_11_layer_scale/variable_17", "shape": [384], "dtype": "float32"}, {"name": "convnext_small_stage_2_block_11_layernorm/gamma", "shape": [384], "dtype": "float32"}, {"name": "convnext_small_stage_2_block_11_layernorm/beta", "shape": [384], "dtype": "float32"}, {"name": "convnext_small_stage_2_block_11_pointwise_conv_1/kernel", "shape": [384, 1536], "dtype": "float32"}, {"name": "convnext_small_stage_2_block_11_pointwise_conv_1/bias", "shape": [1536], "dtype": "float32"}, {"name": "convnext_small_stage_2_block_11_pointwise_conv_2/kernel", "shape": [1536, 384], "dtype": "float32"}, {"name": "convnext_small_stage_2_block_11_pointwise_conv_2/bias", "shape": [384], "dtype": "float32"}, {"name": "convnext_small_stage_2_block_12_depthwise_conv/kernel", "shape": [7, 7, 1, 384], "dtype": "float32"}, {"name": "convnext_small_stage_2_block_12_depthwise_conv/bias", "shape": [384], "dtype": "float32"}, {"name": "convnext_small_stage_2_block_12_layer_scale/variable_18", "shape": [384], "dtype": "float32"}, {"name": "convnext_small_stage_2_block_12_layernorm/gamma", "shape": [384], "dtype": "float32"}, {"name": "convnext_small_stage_2_block_12_layernorm/beta", "shape": [384], "dtype": "float32"}, {"name": "convnext_small_stage_2_block_12_pointwise_conv_1/kernel", "shape": [384, 1536], "dtype": "float32"}, {"name": "convnext_small_stage_2_block_12_pointwise_conv_1/bias", "shape": [1536], "dtype": "float32"}, {"name": "convnext_small_stage_2_block_12_pointwise_conv_2/kernel", "shape": [1536, 384], "dtype": "float32"}, {"name": "convnext_small_stage_2_block_12_pointwise_conv_2/bias", "shape": [384], "dtype": "float32"}, {"name": "convnext_small_stage_2_block_13_depthwise_conv/kernel", "shape": [7, 7, 1, 384], "dtype": "float32"}, {"name": "convnext_small_stage_2_block_13_depthwise_conv/bias", "shape": [384], "dtype": "float32"}, {"name": "convnext_small_stage_2_block_13_layer_scale/variable_19", "shape": [384], "dtype": "float32"}, {"name": "convnext_small_stage_2_block_13_layernorm/gamma", "shape": [384], "dtype": "float32"}, {"name": "convnext_small_stage_2_block_13_layernorm/beta", "shape": [384], "dtype": "float32"}, {"name": "convnext_small_stage_2_block_13_pointwise_conv_1/kernel", "shape": [384, 1536], "dtype": "float32"}, {"name": "convnext_small_stage_2_block_13_pointwise_conv_1/bias", "shape": [1536], "dtype": "float32"}, {"name": "convnext_small_stage_2_block_13_pointwise_conv_2/kernel", "shape": [1536, 384], "dtype": "float32"}, {"name": "convnext_small_stage_2_block_13_pointwise_conv_2/bias", "shape": [384], "dtype": "float32"}, {"name": "convnext_small_stage_2_block_14_depthwise_conv/kernel", "shape": [7, 7, 1, 384], "dtype": "float32"}, {"name": "convnext_small_stage_2_block_14_depthwise_conv/bias", "shape": [384], "dtype": "float32"}, {"name": "convnext_small_stage_2_block_14_layer_scale/variable_20", "shape": [384], "dtype": "float32"}, {"name": "convnext_small_stage_2_block_14_layernorm/gamma", "shape": [384], "dtype": "float32"}, {"name": "convnext_small_stage_2_block_14_layernorm/beta", "shape": [384], "dtype": "float32"}, {"name": "convnext_small_stage_2_block_14_pointwise_conv_1/kernel", "shape": [384, 1536], "dtype": "float32"}, {"name": "convnext_small_stage_2_block_14_pointwise_conv_1/bias", "shape": [1536], "dtype": "float32"}, {"name": "convnext_small_stage_2_block_14_pointwise_conv_2/kernel", "shape": [1536, 384], "dtype": "float32"}, {"name": "convnext_small_stage_2_block_14_pointwise_conv_2/bias", "shape": [384], "dtype": "float32"}, {"name": "convnext_small_stage_2_block_15_depthwise_conv/kernel", "shape": [7, 7, 1, 384], "dtype": "float32"}, {"name": "convnext_small_stage_2_block_15_depthwise_conv/bias", "shape": [384], "dtype": "float32"}, {"name": "convnext_small_stage_2_block_15_layer_scale/variable_21", "shape": [384], "dtype": "float32"}, {"name": "convnext_small_stage_2_block_15_layernorm/gamma", "shape": [384], "dtype": "float32"}, {"name": "convnext_small_stage_2_block_15_layernorm/beta", "shape": [384], "dtype": "float32"}, {"name": "convnext_small_stage_2_block_15_pointwise_conv_1/kernel", "shape": [384, 1536], "dtype": "float32"}, {"name": "convnext_small_stage_2_block_15_pointwise_conv_1/bias", "shape": [1536], "dtype": "float32"}, {"name": "convnext_small_stage_2_block_15_pointwise_conv_2/kernel", "shape": [1536, 384], "dtype": "float32"}, {"name": "convnext_small_stage_2_block_15_pointwise_conv_2/bias", "shape": [384], "dtype": "float32"}, {"name": "convnext_small_stage_2_block_16_depthwise_conv/kernel", "shape": [7, 7, 1, 384], "dtype": "float32"}, {"name": "convnext_small_stage_2_block_16_depthwise_conv/bias", "shape": [384], "dtype": "float32"}, {"name": "convnext_small_stage_2_block_16_layer_scale/variable_22", "shape": [384], "dtype": "float32"}, {"name": "convnext_small_stage_2_block_16_layernorm/gamma", "shape": [384], "dtype": "float32"}, {"name": "convnext_small_stage_2_block_16_layernorm/beta", "shape": [384], "dtype": "float32"}, {"name": "convnext_small_stage_2_block_16_pointwise_conv_1/kernel", "shape": [384, 1536], "dtype": "float32"}, {"name": "convnext_small_stage_2_block_16_pointwise_conv_1/bias", "shape": [1536], "dtype": "float32"}, {"name": "convnext_small_stage_2_block_16_pointwise_conv_2/kernel", "shape": [1536, 384], "dtype": "float32"}, {"name": "convnext_small_stage_2_block_16_pointwise_conv_2/bias", "shape": [384], "dtype": "float32"}, {"name": "convnext_small_stage_2_block_17_depthwise_conv/kernel", "shape": [7, 7, 1, 384], "dtype": "float32"}, {"name": "convnext_small_stage_2_block_17_depthwise_conv/bias", "shape": [384], "dtype": "float32"}, {"name": "convnext_small_stage_2_block_17_layer_scale/variable_23", "shape": [384], "dtype": "float32"}, {"name": "convnext_small_stage_2_block_17_layernorm/gamma", "shape": [384], "dtype": "float32"}, {"name": "convnext_small_stage_2_block_17_layernorm/beta", "shape": [384], "dtype": "float32"}, {"name": "convnext_small_stage_2_block_17_pointwise_conv_1/kernel", "shape": [384, 1536], "dtype": "float32"}, {"name": "convnext_small_stage_2_block_17_pointwise_conv_1/bias", "shape": [1536], "dtype": "float32"}, {"name": "convnext_small_stage_2_block_17_pointwise_conv_2/kernel", "shape": [1536, 384], "dtype": "float32"}, {"name": "convnext_small_stage_2_block_17_pointwise_conv_2/bias", "shape": [384], "dtype": "float32"}, {"name": "convnext_small_stage_2_block_18_depthwise_conv/kernel", "shape": [7, 7, 1, 384], "dtype": "float32"}, {"name": "convnext_small_stage_2_block_18_depthwise_conv/bias", "shape": [384], "dtype": "float32"}, {"name": "convnext_small_stage_2_block_18_layer_scale/variable_24", "shape": [384], "dtype": "float32"}, {"name": "convnext_small_stage_2_block_18_layernorm/gamma", "shape": [384], "dtype": "float32"}, {"name": "convnext_small_stage_2_block_18_layernorm/beta", "shape": [384], "dtype": "float32"}, {"name": "convnext_small_stage_2_block_18_pointwise_conv_1/kernel", "shape": [384, 1536], "dtype": "float32"}, {"name": "convnext_small_stage_2_block_18_pointwise_conv_1/bias", "shape": [1536], "dtype": "float32"}, {"name": "convnext_small_stage_2_block_18_pointwise_conv_2/kernel", "shape": [1536, 384], "dtype": "float32"}, {"name": "convnext_small_stage_2_block_18_pointwise_conv_2/bias", "shape": [384], "dtype": "float32"}, {"name": "convnext_small_stage_2_block_19_depthwise_conv/kernel", "shape": [7, 7, 1, 384], "dtype": "float32"}, {"name": "convnext_small_stage_2_block_19_depthwise_conv/bias", "shape": [384], "dtype": "float32"}, {"name": "convnext_small_stage_2_block_19_layer_scale/variable_25", "shape": [384], "dtype": "float32"}, {"name": "convnext_small_stage_2_block_19_layernorm/gamma", "shape": [384], "dtype": "float32"}, {"name": "convnext_small_stage_2_block_19_layernorm/beta", "shape": [384], "dtype": "float32"}, {"name": "convnext_small_stage_2_block_19_pointwise_conv_1/kernel", "shape": [384, 1536], "dtype": "float32"}, {"name": "convnext_small_stage_2_block_19_pointwise_conv_1/bias", "shape": [1536], "dtype": "float32"}, {"name": "convnext_small_stage_2_block_19_pointwise_conv_2/kernel", "shape": [1536, 384], "dtype": "float32"}, {"name": "convnext_small_stage_2_block_19_pointwise_conv_2/bias", "shape": [384], "dtype": "float32"}, {"name": "convnext_small_stage_2_block_1_depthwise_conv/kernel", "shape": [7, 7, 1, 384], "dtype": "float32"}, {"name": "convnext_small_stage_2_block_1_depthwise_conv/bias", "shape": [384], "dtype": "float32"}, {"name": "convnext_small_stage_2_block_1_layer_scale/variable_7", "shape": [384], "dtype": "float32"}, {"name": "convnext_small_stage_2_block_1_layernorm/gamma", "shape": [384], "dtype": "float32"}, {"name": "convnext_small_stage_2_block_1_layernorm/beta", "shape": [384], "dtype": "float32"}, {"name": "convnext_small_stage_2_block_1_pointwise_conv_1/kernel", "shape": [384, 1536], "dtype": "float32"}, {"name": "convnext_small_stage_2_block_1_pointwise_conv_1/bias", "shape": [1536], "dtype": "float32"}, {"name": "convnext_small_stage_2_block_1_pointwise_conv_2/kernel", "shape": [1536, 384], "dtype": "float32"}, {"name": "convnext_small_stage_2_block_1_pointwise_conv_2/bias", "shape": [384], "dtype": "float32"}, {"name": "convnext_small_stage_2_block_20_depthwise_conv/kernel", "shape": [7, 7, 1, 384], "dtype": "float32"}, {"name": "convnext_small_stage_2_block_20_depthwise_conv/bias", "shape": [384], "dtype": "float32"}, {"name": "convnext_small_stage_2_block_20_layer_scale/variable_26", "shape": [384], "dtype": "float32"}, {"name": "convnext_small_stage_2_block_20_layernorm/gamma", "shape": [384], "dtype": "float32"}, {"name": "convnext_small_stage_2_block_20_layernorm/beta", "shape": [384], "dtype": "float32"}, {"name": "convnext_small_stage_2_block_20_pointwise_conv_1/kernel", "shape": [384, 1536], "dtype": "float32"}, {"name": "convnext_small_stage_2_block_20_pointwise_conv_1/bias", "shape": [1536], "dtype": "float32"}, {"name": "convnext_small_stage_2_block_20_pointwise_conv_2/kernel", "shape": [1536, 384], "dtype": "float32"}, {"name": "convnext_small_stage_2_block_20_pointwise_conv_2/bias", "shape": [384], "dtype": "float32"}, {"name": "convnext_small_stage_2_block_21_depthwise_conv/kernel", "shape": [7, 7, 1, 384], "dtype": "float32"}, {"name": "convnext_small_stage_2_block_21_depthwise_conv/bias", "shape": [384], "dtype": "float32"}, {"name": "convnext_small_stage_2_block_21_layer_scale/variable_27", "shape": [384], "dtype": "float32"}, {"name": "convnext_small_stage_2_block_21_layernorm/gamma", "shape": [384], "dtype": "float32"}, {"name": "convnext_small_stage_2_block_21_layernorm/beta", "shape": [384], "dtype": "float32"}, {"name": "convnext_small_stage_2_block_21_pointwise_conv_1/kernel", "shape": [384, 1536], "dtype": "float32"}, {"name": "convnext_small_stage_2_block_21_pointwise_conv_1/bias", "shape": [1536], "dtype": "float32"}, {"name": "convnext_small_stage_2_block_21_pointwise_conv_2/kernel", "shape": [1536, 384], "dtype": "float32"}, {"name": "convnext_small_stage_2_block_21_pointwise_conv_2/bias", "shape": [384], "dtype": "float32"}, {"name": "convnext_small_stage_2_block_22_depthwise_conv/kernel", "shape": [7, 7, 1, 384], "dtype": "float32"}, {"name": "convnext_small_stage_2_block_22_depthwise_conv/bias", "shape": [384], "dtype": "float32"}, {"name": "convnext_small_stage_2_block_22_layer_scale/variable_28", "shape": [384], "dtype": "float32"}, {"name": "convnext_small_stage_2_block_22_layernorm/gamma", "shape": [384], "dtype": "float32"}, {"name": "convnext_small_stage_2_block_22_layernorm/beta", "shape": [384], "dtype": "float32"}, {"name": "convnext_small_stage_2_block_22_pointwise_conv_1/kernel", "shape": [384, 1536], "dtype": "float32"}, {"name": "convnext_small_stage_2_block_22_pointwise_conv_1/bias", "shape": [1536], "dtype": "float32"}, {"name": "convnext_small_stage_2_block_22_pointwise_conv_2/kernel", "shape": [1536, 384], "dtype": "float32"}, {"name": "convnext_small_stage_2_block_22_pointwise_conv_2/bias", "shape": [384], "dtype": "float32"}, {"name": "convnext_small_stage_2_block_23_depthwise_conv/kernel", "shape": [7, 7, 1, 384], "dtype": "float32"}, {"name": "convnext_small_stage_2_block_23_depthwise_conv/bias", "shape": [384], "dtype": "float32"}, {"name": "convnext_small_stage_2_block_23_layer_scale/variable_29", "shape": [384], "dtype": "float32"}, {"name": "convnext_small_stage_2_block_23_layernorm/gamma", "shape": [384], "dtype": "float32"}, {"name": "convnext_small_stage_2_block_23_layernorm/beta", "shape": [384], "dtype": "float32"}, {"name": "convnext_small_stage_2_block_23_pointwise_conv_1/kernel", "shape": [384, 1536], "dtype": "float32"}, {"name": "convnext_small_stage_2_block_23_pointwise_conv_1/bias", "shape": [1536], "dtype": "float32"}, {"name": "convnext_small_stage_2_block_23_pointwise_conv_2/kernel", "shape": [1536, 384], "dtype": "float32"}, {"name": "convnext_small_stage_2_block_23_pointwise_conv_2/bias", "shape": [384], "dtype": "float32"}, {"name": "convnext_small_stage_2_block_24_depthwise_conv/kernel", "shape": [7, 7, 1, 384], "dtype": "float32"}, {"name": "convnext_small_stage_2_block_24_depthwise_conv/bias", "shape": [384], "dtype": "float32"}, {"name": "convnext_small_stage_2_block_24_layer_scale/variable_30", "shape": [384], "dtype": "float32"}, {"name": "convnext_small_stage_2_block_24_layernorm/gamma", "shape": [384], "dtype": "float32"}, {"name": "convnext_small_stage_2_block_24_layernorm/beta", "shape": [384], "dtype": "float32"}, {"name": "convnext_small_stage_2_block_24_pointwise_conv_1/kernel", "shape": [384, 1536], "dtype": "float32"}, {"name": "convnext_small_stage_2_block_24_pointwise_conv_1/bias", "shape": [1536], "dtype": "float32"}, {"name": "convnext_small_stage_2_block_24_pointwise_conv_2/kernel", "shape": [1536, 384], "dtype": "float32"}, {"name": "convnext_small_stage_2_block_24_pointwise_conv_2/bias", "shape": [384], "dtype": "float32"}, {"name": "convnext_small_stage_2_block_25_depthwise_conv/kernel", "shape": [7, 7, 1, 384], "dtype": "float32"}, {"name": "convnext_small_stage_2_block_25_depthwise_conv/bias", "shape": [384], "dtype": "float32"}, {"name": "convnext_small_stage_2_block_25_layer_scale/variable_31", "shape": [384], "dtype": "float32"}, {"name": "convnext_small_stage_2_block_25_layernorm/gamma", "shape": [384], "dtype": "float32"}, {"name": "convnext_small_stage_2_block_25_layernorm/beta", "shape": [384], "dtype": "float32"}, {"name": "convnext_small_stage_2_block_25_pointwise_conv_1/kernel", "shape": [384, 1536], "dtype": "float32"}, {"name": "convnext_small_stage_2_block_25_pointwise_conv_1/bias", "shape": [1536], "dtype": "float32"}, {"name": "convnext_small_stage_2_block_25_pointwise_conv_2/kernel", "shape": [1536, 384], "dtype": "float32"}, {"name": "convnext_small_stage_2_block_25_pointwise_conv_2/bias", "shape": [384], "dtype": "float32"}, {"name": "convnext_small_stage_2_block_26_depthwise_conv/kernel", "shape": [7, 7, 1, 384], "dtype": "float32"}, {"name": "convnext_small_stage_2_block_26_depthwise_conv/bias", "shape": [384], "dtype": "float32"}, {"name": "convnext_small_stage_2_block_26_layer_scale/variable_32", "shape": [384], "dtype": "float32"}, {"name": "convnext_small_stage_2_block_26_layernorm/gamma", "shape": [384], "dtype": "float32"}, {"name": "convnext_small_stage_2_block_26_layernorm/beta", "shape": [384], "dtype": "float32"}, {"name": "convnext_small_stage_2_block_26_pointwise_conv_1/kernel", "shape": [384, 1536], "dtype": "float32"}, {"name": "convnext_small_stage_2_block_26_pointwise_conv_1/bias", "shape": [1536], "dtype": "float32"}, {"name": "convnext_small_stage_2_block_26_pointwise_conv_2/kernel", "shape": [1536, 384], "dtype": "float32"}, {"name": "convnext_small_stage_2_block_26_pointwise_conv_2/bias", "shape": [384], "dtype": "float32"}, {"name": "convnext_small_stage_2_block_2_depthwise_conv/kernel", "shape": [7, 7, 1, 384], "dtype": "float32"}, {"name": "convnext_small_stage_2_block_2_depthwise_conv/bias", "shape": [384], "dtype": "float32"}, {"name": "convnext_small_stage_2_block_2_layer_scale/variable_8", "shape": [384], "dtype": "float32"}, {"name": "convnext_small_stage_2_block_2_layernorm/gamma", "shape": [384], "dtype": "float32"}, {"name": "convnext_small_stage_2_block_2_layernorm/beta", "shape": [384], "dtype": "float32"}, {"name": "convnext_small_stage_2_block_2_pointwise_conv_1/kernel", "shape": [384, 1536], "dtype": "float32"}, {"name": "convnext_small_stage_2_block_2_pointwise_conv_1/bias", "shape": [1536], "dtype": "float32"}, {"name": "convnext_small_stage_2_block_2_pointwise_conv_2/kernel", "shape": [1536, 384], "dtype": "float32"}, {"name": "convnext_small_stage_2_block_2_pointwise_conv_2/bias", "shape": [384], "dtype": "float32"}, {"name": "convnext_small_stage_2_block_3_depthwise_conv/kernel", "shape": [7, 7, 1, 384], "dtype": "float32"}, {"name": "convnext_small_stage_2_block_3_depthwise_conv/bias", "shape": [384], "dtype": "float32"}, {"name": "convnext_small_stage_2_block_3_layer_scale/variable_9", "shape": [384], "dtype": "float32"}, {"name": "convnext_small_stage_2_block_3_layernorm/gamma", "shape": [384], "dtype": "float32"}, {"name": "convnext_small_stage_2_block_3_layernorm/beta", "shape": [384], "dtype": "float32"}, {"name": "convnext_small_stage_2_block_3_pointwise_conv_1/kernel", "shape": [384, 1536], "dtype": "float32"}, {"name": "convnext_small_stage_2_block_3_pointwise_conv_1/bias", "shape": [1536], "dtype": "float32"}, {"name": "convnext_small_stage_2_block_3_pointwise_conv_2/kernel", "shape": [1536, 384], "dtype": "float32"}, {"name": "convnext_small_stage_2_block_3_pointwise_conv_2/bias", "shape": [384], "dtype": "float32"}, {"name": "convnext_small_stage_2_block_4_depthwise_conv/kernel", "shape": [7, 7, 1, 384], "dtype": "float32"}, {"name": "convnext_small_stage_2_block_4_depthwise_conv/bias", "shape": [384], "dtype": "float32"}, {"name": "convnext_small_stage_2_block_4_layer_scale/variable_10", "shape": [384], "dtype": "float32"}, {"name": "convnext_small_stage_2_block_4_layernorm/gamma", "shape": [384], "dtype": "float32"}, {"name": "convnext_small_stage_2_block_4_layernorm/beta", "shape": [384], "dtype": "float32"}, {"name": "convnext_small_stage_2_block_4_pointwise_conv_1/kernel", "shape": [384, 1536], "dtype": "float32"}, {"name": "convnext_small_stage_2_block_4_pointwise_conv_1/bias", "shape": [1536], "dtype": "float32"}, {"name": "convnext_small_stage_2_block_4_pointwise_conv_2/kernel", "shape": [1536, 384], "dtype": "float32"}, {"name": "convnext_small_stage_2_block_4_pointwise_conv_2/bias", "shape": [384], "dtype": "float32"}, {"name": "convnext_small_stage_2_block_5_depthwise_conv/kernel", "shape": [7, 7, 1, 384], "dtype": "float32"}, {"name": "convnext_small_stage_2_block_5_depthwise_conv/bias", "shape": [384], "dtype": "float32"}, {"name": "convnext_small_stage_2_block_5_layer_scale/variable_11", "shape": [384], "dtype": "float32"}, {"name": "convnext_small_stage_2_block_5_layernorm/gamma", "shape": [384], "dtype": "float32"}, {"name": "convnext_small_stage_2_block_5_layernorm/beta", "shape": [384], "dtype": "float32"}, {"name": "convnext_small_stage_2_block_5_pointwise_conv_1/kernel", "shape": [384, 1536], "dtype": "float32"}, {"name": "convnext_small_stage_2_block_5_pointwise_conv_1/bias", "shape": [1536], "dtype": "float32"}, {"name": "convnext_small_stage_2_block_5_pointwise_conv_2/kernel", "shape": [1536, 384], "dtype": "float32"}, {"name": "convnext_small_stage_2_block_5_pointwise_conv_2/bias", "shape": [384], "dtype": "float32"}, {"name": "convnext_small_stage_2_block_6_depthwise_conv/kernel", "shape": [7, 7, 1, 384], "dtype": "float32"}, {"name": "convnext_small_stage_2_block_6_depthwise_conv/bias", "shape": [384], "dtype": "float32"}, {"name": "convnext_small_stage_2_block_6_layer_scale/variable_12", "shape": [384], "dtype": "float32"}, {"name": "convnext_small_stage_2_block_6_layernorm/gamma", "shape": [384], "dtype": "float32"}, {"name": "convnext_small_stage_2_block_6_layernorm/beta", "shape": [384], "dtype": "float32"}, {"name": "convnext_small_stage_2_block_6_pointwise_conv_1/kernel", "shape": [384, 1536], "dtype": "float32"}, {"name": "convnext_small_stage_2_block_6_pointwise_conv_1/bias", "shape": [1536], "dtype": "float32"}, {"name": "convnext_small_stage_2_block_6_pointwise_conv_2/kernel", "shape": [1536, 384], "dtype": "float32"}, {"name": "convnext_small_stage_2_block_6_pointwise_conv_2/bias", "shape": [384], "dtype": "float32"}, {"name": "convnext_small_stage_2_block_7_depthwise_conv/kernel", "shape": [7, 7, 1, 384], "dtype": "float32"}, {"name": "convnext_small_stage_2_block_7_depthwise_conv/bias", "shape": [384], "dtype": "float32"}, {"name": "convnext_small_stage_2_block_7_layer_scale/variable_13", "shape": [384], "dtype": "float32"}, {"name": "convnext_small_stage_2_block_7_layernorm/gamma", "shape": [384], "dtype": "float32"}, {"name": "convnext_small_stage_2_block_7_layernorm/beta", "shape": [384], "dtype": "float32"}, {"name": "convnext_small_stage_2_block_7_pointwise_conv_1/kernel", "shape": [384, 1536], "dtype": "float32"}, {"name": "convnext_small_stage_2_block_7_pointwise_conv_1/bias", "shape": [1536], "dtype": "float32"}, {"name": "convnext_small_stage_2_block_7_pointwise_conv_2/kernel", "shape": [1536, 384], "dtype": "float32"}, {"name": "convnext_small_stage_2_block_7_pointwise_conv_2/bias", "shape": [384], "dtype": "float32"}, {"name": "convnext_small_stage_2_block_8_depthwise_conv/kernel", "shape": [7, 7, 1, 384], "dtype": "float32"}, {"name": "convnext_small_stage_2_block_8_depthwise_conv/bias", "shape": [384], "dtype": "float32"}, {"name": "convnext_small_stage_2_block_8_layer_scale/variable_14", "shape": [384], "dtype": "float32"}, {"name": "convnext_small_stage_2_block_8_layernorm/gamma", "shape": [384], "dtype": "float32"}, {"name": "convnext_small_stage_2_block_8_layernorm/beta", "shape": [384], "dtype": "float32"}, {"name": "convnext_small_stage_2_block_8_pointwise_conv_1/kernel", "shape": [384, 1536], "dtype": "float32"}, {"name": "convnext_small_stage_2_block_8_pointwise_conv_1/bias", "shape": [1536], "dtype": "float32"}, {"name": "convnext_small_stage_2_block_8_pointwise_conv_2/kernel", "shape": [1536, 384], "dtype": "float32"}, {"name": "convnext_small_stage_2_block_8_pointwise_conv_2/bias", "shape": [384], "dtype": "float32"}, {"name": "convnext_small_stage_2_block_9_depthwise_conv/kernel", "shape": [7, 7, 1, 384], "dtype": "float32"}, {"name": "convnext_small_stage_2_block_9_depthwise_conv/bias", "shape": [384], "dtype": "float32"}, {"name": "convnext_small_stage_2_block_9_layer_scale/variable_15", "shape": [384], "dtype": "float32"}, {"name": "convnext_small_stage_2_block_9_layernorm/gamma", "shape": [384], "dtype": "float32"}, {"name": "convnext_small_stage_2_block_9_layernorm/beta", "shape": [384], "dtype": "float32"}, {"name": "convnext_small_stage_2_block_9_pointwise_conv_1/kernel", "shape": [384, 1536], "dtype": "float32"}, {"name": "convnext_small_stage_2_block_9_pointwise_conv_1/bias", "shape": [1536], "dtype": "float32"}, {"name": "convnext_small_stage_2_block_9_pointwise_conv_2/kernel", "shape": [1536, 384], "dtype": "float32"}, {"name": "convnext_small_stage_2_block_9_pointwise_conv_2/bias", "shape": [384], "dtype": "float32"}, {"name": "convnext_small_stage_3_block_0_depthwise_conv/kernel", "shape": [7, 7, 1, 768], "dtype": "float32"}, {"name": "convnext_small_stage_3_block_0_depthwise_conv/bias", "shape": [768], "dtype": "float32"}, {"name": "convnext_small_stage_3_block_0_layer_scale/variable_33", "shape": [768], "dtype": "float32"}, {"name": "convnext_small_stage_3_block_0_layernorm/gamma", "shape": [768], "dtype": "float32"}, {"name": "convnext_small_stage_3_block_0_layernorm/beta", "shape": [768], "dtype": "float32"}, {"name": "convnext_small_stage_3_block_0_pointwise_conv_1/kernel", "shape": [768, 3072], "dtype": "float32"}, {"name": "convnext_small_stage_3_block_0_pointwise_conv_1/bias", "shape": [3072], "dtype": "float32"}, {"name": "convnext_small_stage_3_block_0_pointwise_conv_2/kernel", "shape": [3072, 768], "dtype": "float32"}, {"name": "convnext_small_stage_3_block_0_pointwise_conv_2/bias", "shape": [768], "dtype": "float32"}, {"name": "convnext_small_stage_3_block_1_depthwise_conv/kernel", "shape": [7, 7, 1, 768], "dtype": "float32"}, {"name": "convnext_small_stage_3_block_1_depthwise_conv/bias", "shape": [768], "dtype": "float32"}, {"name": "convnext_small_stage_3_block_1_layer_scale/variable_34", "shape": [768], "dtype": "float32"}, {"name": "convnext_small_stage_3_block_1_layernorm/gamma", "shape": [768], "dtype": "float32"}, {"name": "convnext_small_stage_3_block_1_layernorm/beta", "shape": [768], "dtype": "float32"}, {"name": "convnext_small_stage_3_block_1_pointwise_conv_1/kernel", "shape": [768, 3072], "dtype": "float32"}, {"name": "convnext_small_stage_3_block_1_pointwise_conv_1/bias", "shape": [3072], "dtype": "float32"}, {"name": "convnext_small_stage_3_block_1_pointwise_conv_2/kernel", "shape": [3072, 768], "dtype": "float32"}, {"name": "convnext_small_stage_3_block_1_pointwise_conv_2/bias", "shape": [768], "dtype": "float32"}, {"name": "convnext_small_stage_3_block_2_depthwise_conv/kernel", "shape": [7, 7, 1, 768], "dtype": "float32"}, {"name": "convnext_small_stage_3_block_2_depthwise_conv/bias", "shape": [768], "dtype": "float32"}, {"name": "convnext_small_stage_3_block_2_layer_scale/variable_35", "shape": [768], "dtype": "float32"}, {"name": "convnext_small_stage_3_block_2_layernorm/gamma", "shape": [768], "dtype": "float32"}, {"name": "convnext_small_stage_3_block_2_layernorm/beta", "shape": [768], "dtype": "float32"}, {"name": "convnext_small_stage_3_block_2_pointwise_conv_1/kernel", "shape": [768, 3072], "dtype": "float32"}, {"name": "convnext_small_stage_3_block_2_pointwise_conv_1/bias", "shape": [3072], "dtype": "float32"}, {"name": "convnext_small_stage_3_block_2_pointwise_conv_2/kernel", "shape": [3072, 768], "dtype": "float32"}, {"name": "convnext_small_stage_3_block_2_pointwise_conv_2/bias", "shape": [768], "dtype": "float32"}, {"name": "convnext_small_stem/convnext_small_stem_conv/kernel", "shape": [4, 4, 3, 96], "dtype": "float32"}, {"name": "convnext_small_stem/convnext_small_stem_conv/bias", "shape": [96], "dtype": "float32"}, {"name": "convnext_small_stem/convnext_small_stem_layernorm/gamma", "shape": [96], "dtype": "float32"}, {"name": "convnext_small_stem/convnext_small_stem_layernorm/beta", "shape": [96], "dtype": "float32"}, {"name": "dense/kernel", "shape": [37632, 2048], "dtype": "float32"}, {"name": "dense/bias", "shape": [2048], "dtype": "float32"}, {"name": "dense_1/kernel", "shape": [2048, 512], "dtype": "float32"}, {"name": "dense_1/bias", "shape": [512], "dtype": "float32"}, {"name": "dense_2/kernel", "shape": [512, 128], "dtype": "float32"}, {"name": "dense_2/bias", "shape": [128], "dtype": "float32"}, {"name": "dense_3/kernel", "shape": [128, 128], "dtype": "float32"}, {"name": "dense_3/bias", "shape": [128], "dtype": "float32"}, {"name": "dense_4/kernel", "shape": [128, 16], "dtype": "float32"}, {"name": "dense_4/bias", "shape": [16], "dtype": "float32"}, {"name": "dense_5/kernel", "shape": [16, 5], "dtype": "float32"}, {"name": "dense_5/bias", "shape": [5], "dtype": "float32"}, {"name": "layer_normalization/gamma", "shape": [768], "dtype": "float32"}, {"name": "layer_normalization/beta", "shape": [768], "dtype": "float32"}]}]}